net.pth (torch_old, 274988 bytes, 10 tensors)

weight f4 [6, 3, 5, 5]
00000000: 231b 06bd a81d f3bc 86ef ea3d 8f91 913d
00000010: 8a40 de3d 9dc1 97bd c34f 46bd 61d4 18bd
00000020: 248c ce3d aa52 dabc 54d7 9bbd 493a 35be
00000030: 6fd3 a73c c618 0b3d ecac 8abd 0c1e 07be
00000040: 091e 32be 39f7 69bd a844 8ebc 047d b53d
00000050: df7d 06bd de40 0ebe f58c fdba ff49 913b
00000060: e1ca 56bd a5e8 b4bd 6ed1 d93c c6e1 b83d
00000070: b52c 223c 5d08 403e f262 383c 7f1d 493d
00000080: 9777 053d 5111 f93b af06 413e 540e 92bd
00000090: 1033 f0bb cf46 4d3d 7d06 ae3d 4a23 adbb
000000a0: a308 55be 150f a6bd b9d4 e6ba f581 a5bd
000000b0: aac2 04bb b52d 39bc 8732 ffbd 9be4 dfbd
000000c0: 4e1e b33c 1ef8 103d e17d 5ab9 16be 193e
000000d0: 957d 0d3e be81 1a3e a004 3a3e a022 cfbd
000000e0: 31b6 513d 029c 16bc 10e7 5b3d 780c 373e
000000f0: ba3c dcbd d649 f2bd 4755 de3c 9a71 8d3c
00000100: eb5d 443e d865 99bd 33ce 3ebd 910f 6b3d
00000110: 5a09 983d 70ec 8a3d bc5c 26bd 9d24 e3bd
00000120: c200 2a3d 66f8 343d f572 0c3d 6783 503d
00000130: 53fa 18bd b114 273d c615 85bd a8af 94bd
00000140: 3892 6ebd 1f16 923d 287e b7bd c1e8 dabc
00000150: 6475 bfbc 37e4 47bd 5ecc c4bd 1768 c73d
00000160: f6c4 a9bc 24c0 cabd 3f44 98bc f27b c03b
00000170: 3d3c cf3d 0e99 d2bd eb8a e9bd d07d 673d
00000180: cd10 a0bd e4be c83d 5f0e 1c3d 3236 5dbd
00000190: c9bb a2bb 6188 953d 45e9 b0bc 0d90 cebd
000001a0: 2e90 06bd 05d0 98bd 9532 b93d 74df b9bd
000001b0: 455b 143d c7a9 823a 2a78 193d 789b 58bc
000001c0: 4118 843d 4178 4f3d 5fd0 9bbc c398 84bd
000001d0: aa48 d9bd 8cf4 4c3d 6d83 1bbd a268 77bd
000001e0: 371d d83d 7de4 00bc 30c7 89bc 0058 f6bc
000001f0: e5c9 433c 270c dabd 228c debc 5e38 33bd
00000200: 0e94 753d 975e 25bd 89a7 49bd 7a7f 603d
00000210: cb2b c9bc 799f f2bc 0ec3 55bd fe67 4e3d
00000220: 6153 b8bd a781 b8bd dfbe d0bd 2284 d5bc
00000230: 1fad 1f3d 1816 9a3d 352c b83c 660e 36bc
00000240: 95bb 4338 bf3a a0bd b0fd f13b 137b 903c
00000250: 624d 9f3c ae8d 453c 396e 6b3e 46b3 ad3e
00000260: 520b cf3e 61ef b93e 6ca5 2dbb da1e 8b3e
00000270: 9bce f03e 1be5 043f fcfb cd3e 8db4 6e3e
00000280: 7996 a53e 3867 0f3f 8372 0f3f 1768 053f
00000290: 76a4 953e c65e 8b3e 6235 0e3f b3c3 093f
000002a0: ecf5 113f 1812 b23e 1c75 ee3d b9f8 b93e
000002b0: 37d0 e73e d0c1 983e 456b 5a3e c686 af3d
000002c0: f27b 363e 5e7f ab3e 4347 423e fa2b 763d
000002d0: 20d9 693e 24d7 b23e 4e67 083f 3866 053f
000002e0: 800d 773e 1b01 9b3e 318e b33e fd66 f23e
000002f0: adca 0e3f e8d7 9e3e 2e8e a73e 9a8a d43e
00000300: 9a44 e73e a1a5 083f 0551 bb3e 0f7d 643e
00000310: 4e75 783e 4d87 a93e 08f3 b53e 47ae 823e
00000320: 9b92 0fbd 0319 aa3d f822 d93c c721 e5bc
00000330: e03e b73c a8bb f3bd 391f c73d d0a7 923e
00000340: a59c b83e f886 0f3e 8b02 c43d 256c 343e
00000350: 79f1 d03e 9405 e93e 18f0 853e 4201 883d
00000360: 1a62 143e 258a ec3e bba4 d63e dbdf 943d
00000370: 181e 3abe 7cc6 4a3e 54b6 de3d eb72 513d
00000380: 011d efbd dcd2 fbbd b534 f03b 6578 fdbd
00000390: f82b dabd deb0 f0bd 0859 a5bd 45b6 293c
000003a0: 43c9 04bd cee9 98bd b435 483d abdc db3d
000003b0: b286 b8bb 2fb5 cd3d 3b7f 9abd 4ee5 97bd
000003c0: d602 8e3d b7cc 5f3d 1d19 b73a 6db4 7cbd
000003d0: c22e 4c3c 48d2 8e3d ec4f af3d 4b0a 673d
000003e0: 1162 c4bd c914 2abd f2a0 3c3d 7f8e d9bc
000003f0: 137d 25be 95c4 25be 8ea6 ddbd a27e e3bd
-0.032740723 -0.029677227 0.11471467 0.07107841 0.108521536 -0.07409976 -0.04841591 -0.037311915
0.100853235 -0.026650745 -0.0760943 -0.17698015 0.020486562 0.033959173 -0.067712635 -0.13195056
-0.1739427 -0.057120536 -0.017366722 0.088617355 -0.032834884 -0.13891932 -0.0019344377 0.00443387
-0.052439574 -0.08833436 0.026589122 0.09027438 0.009898354 0.1875319 0.011254059 0.049100395
0.032584753 0.007600941 0.18850206 -0.07131639 -0.007330306 0.050116356 0.08497331 -0.005283748
-0.20804076 -0.081083454 -0.0017611004 -0.08081428 -0.002025763 -0.011302401 -0.12460809 -0.10932275
0.021865036 0.035392873 -0.00020836994 0.15013918 0.13817437 0.15088555 0.18165827 -0.10114026
0.051199142 -0.009192469 0.053687155 0.1787585 -0.1075377 -0.11830489 0.027140273 0.017266084
0.19176452 -0.07490128 -0.046583366 0.057387892 0.07423659 0.06783378 -0.040615782 -0.11090968
0.04150463 0.044182204 0.03428932 0.050906565 -0.037348103 0.040791217 -0.064982936 -0.07260066
-0.058244914 0.071331255 -0.08959609 -0.026722314 -0.023371406 -0.048801627 -0.096092924 0.097366504
-0.020723801 -0.09899929 -0.01858723 0.0058741504 0.101189114 -0.10283099 -0.114034496 0.05651647
-0.078157045 0.098020345 0.038099643 -0.054006763 -0.0049662334 0.07301403 -0.021595607 -0.10086069
-0.032852344 -0.074615516 0.09042851 -0.090758234 0.036219854 0.000996881 0.037468113 -0.01322066
0.064499386 0.050651792 -0.019020258 -0.064744495 -0.10609563 0.050037906 -0.037967134 -0.06040252
0.10552447 -0.007866976 -0.016818613 -0.030071259 0.011949991 -0.10646849 -0.02716643 -0.043754928
0.05995565 -0.04037341 -0.04923204 0.05480907 -0.024557015 -0.029617058 -0.05218797 0.050392143
-0.09000278 -0.09009104 -0.10192656 -0.026063982 0.03898346 0.07523745 0.022482017 -0.011111831
4.6666322e-05 -0.07823705 0.0073849782 0.017636811 0.019446079 0.012057705 0.22991265 0.33925837
0.40438324 0.36315444 -0.0026496304 0.27171975 0.47032627 0.5191209 0.4023131 0.23311062
0.32341364 0.56016874 0.56034106 0.52111953 0.29227036 0.27220744 0.55550206 0.5381424
0.5701587 0.3477943 0.116434306 0.36322573 0.45276043 0.29835367 0.21329983 0.08570628
0.17820719 0.3349561 0.18972497 0.060100533 0.22836733 0.34929764 0.5328263 0.521091
0.24126244 0.3027428 0.3506942 0.473442 0.5577801 0.31024098 0.32725662 0.41511995
0.45169526 0.5337773 0.3658525 0.22313331 0.24263498 0.3311104 0.3553698 0.25523588
-0.035051923 0.08305552 0.026505932 -0.027970208 0.022368848 -0.11901027 0.09722752 0.28643656
0.3605701 0.1401633 0.095707975 0.17619379 0.4080923 0.45512068 0.2615974 0.06640865
0.14490548 0.46199146 0.41922554 0.072692595 -0.18175542 0.19802278 0.1087462 0.051134985
-0.11675454 -0.122960776 0.007330502 -0.12376479 -0.106529176 -0.11752485 -0.08073622 0.010358398
-0.0324185 -0.0746647 0.04887934 0.107354484 -0.0056312913 0.10044324 -0.075437985 -0.07416783
0.06934135 0.05463859 0.0013969276 -0.061695505 0.01246232 0.06973702 0.08560166 0.0564063
-0.09589017 -0.04152373 0.046051927 -0.026557205 -0.16160993 -0.16188271 -0.108227834 -0.11108138

bias f4 [6]
00000000: 46de 0f3e afe8 4cbd b695 59be 15e1 2a3f
00000010: 7723 89be 4f5f cc3e
0.14049634 -0.050026592 -0.21248516 0.667497 -0.2678487 0.39916465

weight f4 [16, 6, 5, 5]
00000000: cceb efbb 1b64 b03c ca01 8a3d 0ff9 e9bb
00000010: d30c f8bc 8025 83bd 72a1 57bd 78ad 83bc
00000020: 8ec7 b9ba 3db2 983d 8705 edbc f092 84bc
00000030: 3b49 93bd 8af5 593d 94b8 c9bc c9cb 3fbd
00000040: 48ae 93bd 9a52 b4bd 2944 dd3c 2370 853c
00000050: d96f 35bd 1902 1cbd 69cc 8f3d ddc1 243c
00000060: 8102 9d3d 8363 723d 023e e6bc 1739 87bd
00000070: 96aa 15bd cc06 2a3d 9f01 33bd 599c 9abd
00000080: d01d 0a3d 1be5 1fbb c7ff 003d e4cd 703d
00000090: 8f72 2dbc 66cc 5fbd 20aa a63d d50c 89bd
000000a0: f2c3 a03d 908f 20bd 8867 a6bd ad31 84bd
000000b0: 3197 93bd 1f87 0ebd 88cf 873d 1e5b a43d
000000c0: 02a8 173c c96f 65bd 72d5 db3c d4a0 953d
000000d0: c46e 0f3e 067f 193e 2297 213d e7dc fdbd
000000e0: a5c8 15be 3225 bfbd 918e 0dbc a17f cdbc
000000f0: 8776 b83d d145 8e3d a53e 663d bd91 983c
00000100: 5c1a d2ba 71e2 753e ed43 443e 5d56 f43d
00000110: 8a35 c53c 6847 253e 2c14 583e ed27 a93d
00000120: bbbf 6bbd 42e8 d13c 1aed 0b3e 96c5 15ba
00000130: e838 26bd 1cc3 cd3d 8f62 a93d 5951 0e3d
00000140: e2b6 fd3c e4e7 38bc 2eba 5c3b 4c11 813b
00000150: c5ea d7bc 44d4 3a3b bdf6 663d 5c27 063d
00000160: 0482 893d 2285 bc3c 0d61 963c 5b62 ea3d
00000170: 4961 953d 46e4 7d3d ce38 fa3d 9220 98bd
00000180: 1eef 3ebd ced6 383d 161d 663d f5bf d63c
00000190: bfa8 a53c 3e52 c93d 4f99 b5bc 8fd8 3ebd
000001a0: 6127 e6bc daff 3f3d 6dad f53b 1754 2cbd
000001b0: e972 5b3c 5df0 bb3b e6a6 50bd a618 993d
000001c0: aec3 5bbd b314 eeba a761 86bd 6182 c23d
000001d0: 9e9e 213c ccb9 94bc 70df b5bc 8860 da3d
000001e0: 2dca 533d 9f8b 5cbc b8c7 a9bd 9453 9d3d
000001f0: 2072 8f3d ec0f 19be 00a8 823d dc2c d83d
00000200: de31 ec3c ffa3 893d b9d4 90be 520f 59be
00000210: b50f 1dbe d85f 04be 3423 01be 2013 ecbd
00000220: c769 cdbd 7c59 b5bd 71f8 3fbe 0dd4 1cbe
00000230: 9180 2e3e a189 033e 0092 933d f0ea 233e
00000240: b38d 293e c32b 0a3e ecfe e3bc 54b7 17be
00000250: e34e 3f3d 73bb 62bc 4fbd 43bd b477 c4bc
00000260: 0107 cb3c e76d e8bc 6678 363d f4ca e13c
00000270: 7248 2ab7 89ba a3bc 7587 263d 5157 1d3c
00000280: e11b d53c 4d71 b2bd 8f53 933d 4cd2 a7bc
00000290: 5df2 b4bc 270f 9c3d 4f93 58bd 387c 5fbd
000002a0: aefa 9c3d c034 b13d 5cd3 6a3d 86c8 683d
000002b0: fa57 8a3d 3a00 d43c 3f7b 59bd c737 a6bd
000002c0: 78b1 243d 31fc d03c 7892 253d c0d6 64bd
000002d0: ccd6 d4bc 828a 843d 5893 433d a61f 5ebd
000002e0: 6b28 773c c89c b4bc 3e75 853d 668c 483c
000002f0: 3746 9ebd 7eae 883d 693d 8f3c cb3b 0fbd
00000300: 000a 2cbb a2ec 983d beef 3ebd f8eb 393d
00000310: 2fd0 253b 800f a13d 2e5b a4bc c8ba 433d
00000320: bd35 223d e437 b9bd 0829 70bd 7266 053e
00000330: a781 ed3c ff2b cebd 4287 d1bd b7d4 0fbe
00000340: 76fe 5d3d 0ed0 e53d 550c a3bc 2968 24be
00000350: 7603 30be 09b4 8d3d 5c02 2f3e 93a4 c23d
00000360: ecb3 cabc d049 f7bd 6dd8 c5bc e8ea 083e
00000370: b0d1 393e 80f9 f83d 4ad9 97bc d26d 67bc
00000380: d06a f33d 53e5 94bd 039d 42bc 491d b3bd
00000390: 8fee f8bc 369d 35bd 2db6 97bd 52ce be3c
000003a0: 22f0 483d f580 6b3b 0666 86bd eff9 abbc
000003b0: 47c4 183d 13e6 1a3d 1323 acbc ca68 b2bc
000003c0: eb98 b03d 938c 81bc f6fb 603d 9475 8a3d
000003d0: 6714 87b9 1c6a 36bd 3b2f 16bd 04be 313d
000003e0: 8ee0 553d 4b17 043d 3e5c 693b 58ee 6cbd
000003f0: fddb 75bc d6c9 a53d 9a55 30bc fb72 7d3c
-0.0073218103 0.021532109 0.067386225 -0.007140286 -0.030279553 -0.06403637 -0.0526442 -0.016073927
-0.0014173852 0.07455871 -0.0289333 -0.016183347 -0.07191702 0.05321268 -0.024624147 -0.046825204
-0.07210976 -0.088048175 0.02701004 0.016288823 -0.04429612 -0.038087938 0.0702141 0.010055986
0.07666493 0.059176933 -0.02810574 -0.06602686 -0.036539637 0.04151039 -0.043702718 -0.07549352
0.033719838 -0.0024398032 0.03149393 0.058790103 -0.010586395 -0.05463829 0.081379175 -0.06691901
0.078498736 -0.039199412 -0.08125216 -0.064547874 -0.07206572 -0.03479683 0.0663138 0.08025192
0.009256365 -0.05601481 0.026835177 0.07306066 0.14007097 0.14989862 0.039450772 -0.123956494
-0.14627321 -0.09333266 -0.0086399475 -0.025085272 0.09006982 0.0694691 0.056212086 0.01862418
-0.0016029584 0.24012162 0.19166537 0.11930535 0.024073381 0.1614052 0.21101445 0.08259568
-0.057555895 0.025623444 0.13664666 -0.00057133415 -0.040581614 0.1004698 0.08270752 0.034745548
0.030970994 -0.011285756 0.0033680308 0.0039388295 -0.026357064 0.0028507868 0.05638765 0.03275238
0.06714252 0.023012701 0.018356824 0.11444541 0.07293946 0.061985277 0.12217866 -0.07428087
-0.04661476 0.04512673 0.056180082 0.02621458 0.020222066 0.098301396 -0.02216783 -0.046593245
-0.02809495 0.04687486 0.0074974806 -0.04207238 0.013394096 0.0057354406 -0.050940417 0.074754044
-0.05365341 -0.0018164128 -0.065615945 0.09497524 0.009864477 -0.018155001 -0.02220127 0.10662943
0.05170648 -0.013461023 -0.082900465 0.07681957 0.070041895 -0.1494748 0.063797 0.10555431
0.028832372 0.06720733 -0.28287295 -0.2119725 -0.15338023 -0.12927186 -0.12611085 -0.11527085
-0.10029941 -0.088549584 -0.18747117 -0.15315266 0.17041232 0.1284547 0.07205582 0.1600759
0.1655796 0.13493256 -0.027831517 -0.14816028 0.04670609 -0.013838637 -0.04778796 -0.02398286
0.024783613 -0.028372718 0.044548415 0.027562596 -1.0149657e-05 -0.019986408 0.040656526 0.009603337
0.02601427 -0.08713017 0.07193672 -0.02048602 -0.022088224 0.076200776 -0.05287486 -0.054561824
0.07665001 0.086526394 0.057330474 0.05683186 0.067550614 0.025879014 -0.053096052 -0.081161074
0.04020831 0.02551088 0.040422887 -0.055868864 -0.02598133 0.06471731 0.04774794 -0.0542294
0.01508532 -0.022047415 0.06516503 0.012240505 -0.07728236 0.06673907 0.017485337 -0.034969132
-0.0026251078 0.07467009 -0.046615355 0.045391053 0.002530109 0.078642845 -0.02006301 0.04778555
0.03960203 -0.090438634 -0.05863288 0.13027361 0.028992487 -0.10066985 -0.102308765 -0.14045988
0.05419775 0.11221324 -0.019903341 -0.16055359 -0.1718882 0.069191046 0.17090744 0.09504046
-0.024743997 -0.120746255 -0.024151051 0.1337086 0.18146396 0.12156963 -0.018536229 -0.014125304
0.11885607 -0.072703026 -0.011878255 -0.0874582 -0.030387191 -0.04433938 -0.07407794 0.02329174
0.049057133 0.0035935019 -0.06562428 -0.020993201 0.03729656 0.037817072 -0.021012818 -0.021778483
0.08622917 -0.015814101 0.05492779 0.067607075 -0.00025764407 -0.044534788 -0.036666136 0.043394104
0.052216105 0.032248776 0.003560796 -0.05784449 -0.015006063 0.08095138 -0.0107625965 0.015469308

bias f4 [16]
00000000: 3ba2 343e 6de9 dfbc f93c 2e3e cef4 b2bd
00000010: 38da acbd b342 7fbd 9ed8 983b 13fc 9d3d
00000020: 6b6c 183d 7e4f 2bbd 3610 053e daa5 333e
00000030: 8a57 05ba 74f2 3c3e 41f8 c83c 3a06 a63e
0.17640011 -0.027332986 0.17015447 -0.08738099 -0.084400594 -0.06231947 0.0046644947 0.07714095
0.03721277 -0.041823857 0.12994465 0.17543736 -0.00050865917 0.18451864 0.02453244 0.32426625

weight f4 [120, 400]
00000000: 941e e83c 39f4 143c 49e0 963c 07b1 833b
00000010: 5fee 503b 7ffb 1e3d 6597 d53c 7bfa 7d3d
00000020: 9269 0abd 0d61 6d3d ec16 353d 2c46 e63d
00000030: 8af5 de3c 4100 d4bc 580d a8bc 519b d93c
00000040: 66dd 2f3c 2570 debd e989 033c 0404 2dbd
00000050: 1881 aabc 8080 583c 39d6 103d 4d34 ae3c
00000060: 09e0 c2bc 14c1 02bd a17c aebb 4833 cabc
00000070: b048 963c d82c c3bb 95c6 663d 19d3 163d
00000080: 479f a63c eaf6 1dbd 4cb3 ec39 4d2b 0abd
00000090: 3629 3f3d 27f8 85bd c2bf 893c 84c3 febc
000000a0: 266b f03b f435 eabc 999a 35bd 9aea 1eba
000000b0: 7057 0e3d e2c8 22bd 0cc1 2abc 850c 2c3c
000000c0: fe93 88bb 3172 7f3c 532d 963c 1cf6 8ebc
000000d0: 5132 483c 458b bb3c b205 223c 1757 473d
000000e0: 80dd 4a3d 54f4 3e3c 7ff4 eb3b 298b 053d
000000f0: d401 7f3c c9a0 b9bd 5845 8ebd 548e 84bd
00000100: f209 2abc b482 ad3c face 9fbb c156 23bd
00000110: 5600 403d 5a86 1fbd f2d6 053c a94a 9ebc
00000120: d258 b3bc 9bb5 9dbd 3295 06bc 6b05 ff3b
00000130: 9a93 4d3d 2c98 da3c 2da6 b23b 47c3 47bd
00000140: 650e 5cbd ee6d 3d3b bd56 1a3c fd30 40bc
00000150: 3724 343c 16fd 1a3d 4673 56bd b83c a93c
00000160: 9dfb 16bd f842 983c c6a3 a1bc bbc0 f0bc
00000170: 562a a7bb 6647 26bd 08df 17bd d437 dc3b
00000180: f1a6 c13b dbcc 1ebc 4fd7 ca3c 423e 533b
00000190: 477b 303d 3025 553d 350d fd3b 5c90 7b3c
000001a0: 5167 30bc a30d 133d 2b60 b43b 68b3 5bbc
000001b0: 5a32 74bb 0c49 26bd 9943 9e3c e787 ebbc
000001c0: 7227 a93a dab6 843b b99c fb3c bfdf 603c
000001d0: 9122 67bd 39fa 903c 95e9 9b3c 514b 813c
000001e0: 431e 98bb c55e 633d ca79 fab8 e1ea 11bd
000001f0: 7dd4 793c c87c 3b39 b751 35bd f62d 3dbd
00000200: 5ea1 e0bb 3c12 1f3d e9ff a4bc ea97 4d3d
00000210: b40d 7b3c 1be0 5ebd 27df 81bc 3b26 94ba
00000220: 5bca b4bc f6ef d73c 26c9 f53c cd28 de3c
00000230: 0327 0e3d 125d 3c3d 8958 49bd 91c6 12bd
00000240: 0dc4 193d da4f 22bd 427d 10bc 6ba3 f8bc
00000250: 94f9 293c 5ac2 26bd 9088 0cbd 18d1 f53c
00000260: 401d 38bd 5546 6bbd b332 ea3b 1904 3c3d
00000270: e7ba 2d3b e600 043c 7bf1 5cbd 8e3a 423d
00000280: 8ce2 58bd 3cb6 923c 2c37 083d fc83 56bd
00000290: e24c 1d3d 3641 4dbc 1b12 093d f361 233d
000002a0: b485 053c a9e7 d13c 300d 2bbd 0ba3 293d
000002b0: 6c2c 8b3c b88d 93bd ed94 cabc 818c 65bc
000002c0: 4290 36bc 4c47 b03d d13f e13c d7d3 18bc
000002d0: 0926 0b3c dddd f23c f4dc e13c 72f2 a13b
000002e0: 0ead 5e3b 53cc 573c af66 d2bb 65f1 24be
000002f0: c8cb 3ebe 8524 fabc 4722 0abd bdf1 6b3d
00000300: 59b4 cc3d 064d 853d 895a 7b3d 016a e83c
00000310: fe5e fe3c a9ac 1cbc a8ac a23d bd65 333d
00000320: 9e05 1bbd bf55 7bbc 57da 42bb 058b 393c
00000330: c7a7 d3bc a2f1 903b 758c a5bc 2e16 11bc
00000340: eece 2a3a 9c87 b83d d6a2 65bd d14b 053e
00000350: 5d8d 2ebe 1263 8bbd afb1 ec3c 704f 9d3d
00000360: 242b 153d 292b a8bd 9770 b4bb db63 b3bd
00000370: d594 c43d e854 a03b 1767 bb3d 91bb cbba
00000380: 24aa f43c e937 1c3c 1836 233d 8ba5 343c
00000390: 5ee3 b5bb 3f75 0d3d 51ae 3d3d 6bfe 983b
000003a0: 4e98 66bb ad9e 723c 617e 2cbd b572 0bbd
000003b0: 6655 e0bb f7d3 4dbd 0de5 9b3c 1673 a4bc
000003c0: 63e8 61bd 8b6e aa3b c0c9 3b3d ea94 d0bc
000003d0: 6026 1dbc c4a9 0fbd 1a03 ebbc e1cc ecbb
000003e0: cff8 edbc edab 853b 6cae 15bd a080 943c
000003f0: f7f0 4abd 266f 753c 6395 abbc ba6d abbc
0.028334893 0.00909143 0.018417494 0.004018906 0.0031880361 0.038814064 0.026073167 0.062006455
-0.033792086 0.057953883 0.044211313 0.11243853 0.027216692 -0.025879027 -0.020514175 0.026563318
0.010733938 -0.108612336 0.008028486 -0.042240158 -0.02081351 0.013214231 0.03536055 0.021265173
-0.023788469 -0.031922415 -0.0053249155 -0.024682656 0.018345207 -0.0059562735 0.056341726 0.036822412
0.020339621 -0.038565554 0.00045147014 -0.0337327 0.04667016 -0.06541472 0.01681507 -0.031099088
0.007336992 -0.02859018 -0.04433689 -0.000606218 0.034751356 -0.039742358 -0.0104220025 0.010501032
-0.0041680327 0.01559119 0.01833216 -0.017451338 0.012219028 0.022893557 0.009889053 0.04866704
0.049527645 0.011654932 0.007200777 0.032603417 0.015564401 -0.090638705 -0.0694682 -0.064724594
-0.010378348 0.021180488 -0.0048769685 -0.039877657 0.04687532 -0.038946487 0.008168923 -0.01932271
-0.021892939 -0.07700654 -0.008214282 0.0077826283 0.050189592 0.02668389 0.0054519386 -0.048770215
-0.053724665 0.0028904635 0.009420094 -0.01173043 0.010994962 0.037839018 -0.052356027 0.020658836
-0.03686105 0.01858662 -0.019731414 -0.029388776 -0.0051014824 -0.040595435 -0.037077934 0.0067205224
0.0059097935 -0.009692396 0.02476087 0.0032233153 0.043086316 0.052037418 0.0077225217 0.015354242
-0.01076682 0.035901677 0.005504628 -0.013409473 -0.0037261457 -0.040597007 0.019319342 -0.028751327
0.0012905432 0.004050118 0.03071438 0.01372522 -0.05642945 0.01769744 0.019032279 0.015782984
-0.0046422794 0.0555103 -0.00011943614 -0.03562439 0.015248415 0.00017880194 -0.044267382 -0.04618641
-0.006855174 0.03883575 -0.020141559 0.050193705 0.015323091 -0.054412942 -0.015853478 -0.0011302897
-0.022069147 0.02635954 0.030003142 0.027119065 0.034705173 0.045987196 -0.0491567 -0.0358339
0.037540484 -0.039626934 -0.008818926 -0.030351361 0.0103744455 -0.04071269 -0.034309924 0.03000693
-0.04494977 -0.05744012 0.007147157 0.045902345 0.0026509108 0.008056855 -0.05394123 0.047419123
-0.052950427 0.017909162 0.03325574 -0.052371964 0.0384034 -0.0125277545 0.033464532 0.039888334
0.008149553 0.02562316 -0.041760623 0.041415256 0.016988955 -0.07204765 -0.024729216 -0.0140105495
-0.011142792 0.08607349 0.02749625 -0.00932785 0.008492955 0.029646808 0.027571179 0.004942232
0.003397766 0.013171273 -0.0064209322 -0.1610771 -0.18632424 -0.030534992 -0.033724096 0.057603586
0.09995336 0.06508832 0.061365638 0.02837086 0.031051155 -0.00956265 0.07943088 0.043798197
-0.037847154 -0.015340268 -0.0029732191 0.011324649 -0.025836838 0.004423336 -0.020208577 -0.008855386
0.000651582 0.090102404 -0.056063496 0.13017203 -0.17046113 -0.068060055 0.02889332 0.07681167
0.036418095 -0.08211357 -0.005506586 -0.0875928 0.095987 0.004892934 0.09150522 -0.001554357
0.029866286 0.009534814 0.03984651 0.011025797 -0.005550786 0.034535643 0.04630882 0.004669001
-0.0035185996 0.014808339 -0.04211271 -0.03404494 -0.006846118 -0.050250974 0.019030118 -0.020074409
-0.055153262 0.005201166 0.0458467 -0.025461633 -0.009591669 -0.03507401 -0.028688002 -0.007226572
-0.029049305 0.004079333 -0.036543295 0.01812774 -0.04954621 0.014980113 -0.020945257 -0.020926345

bias f4 [120]
00000000: f857 40bb 674a 4e3d 8ec9 02bc a883 0d3d
00000010: 9766 643d e523 683d 2394 f8bc 269a dabb
00000020: 1fa6 6e3d 4c44 f63d 0944 0c3d 5883 133d
00000030: b4a6 293d 0003 b8bc 6e9f 5bbc ff15 f9bc
00000040: feca 033d b1df 123c e1fe aa3c fb0b 6d3d
00000050: 1d90 0b3d aad5 703c 6d27 dcbc 8597 29bd
00000060: 2c99 533d 9c4d 603d 70e6 19bd 0f89 a1bc
00000070: c8b3 463d b985 1f3d d2e1 fb3d bb68 57bc
00000080: f2b5 753c c80d 693d ac47 b83c 53e0 5a3d
00000090: 3749 da3c 3f7a fb3c 0dc4 163d 343b f83d
000000a0: 1a4f 13ba 0a12 3ebd 47b8 42bc 1c78 643c
000000b0: 6e62 833c de3c cfbc c6d3 cd3d bd83 5a3d
000000c0: 35ef 0aba 02c7 1b3c 2384 923c cf41 a0bc
000000d0: abb5 94bc a023 383d 4083 8f3d 6adf a83c
000000e0: ec6f c5bc b9c4 243c 041b 9a3b 348a abbd
000000f0: 70d7 e4bc 47c7 c3bc 6769 543d ba67 983c
00000100: 4fb3 20bc 44f7 12bc 2daa 25bd e099 95bc
00000110: 93d1 9dbb 915f 7a3d 3324 08bc 2003 90bd
00000120: e324 0fbd 3ecf b9bc d74f 023d 9024 b13b
00000130: e4ab 7f3d afad e43b a7e5 cbbc a3af cebb
00000140: 9170 983d 5ba5 55bc 3d83 d73d ec47 ef3c
00000150: 8195 cfbc 0c55 b83a 7e29 2dbd 7858 15bd
00000160: ae69 8f3c 9a9f f43b 7265 07bd 9524 bd3c
00000170: b4ed 42bd 5ec2 b23d fbf3 3ebd 00ef 6a3d
00000180: 2e4f 39bd 7459 0a3c b4e2 56bc ff5e 3fbd
00000190: 5558 943d ef87 44bd 54ab 433c 5ce8 c13c
000001a0: 9787 283d d89b a5bc 558e ca3c a36a 3c3c
000001b0: 3d00 073d b4a9 8abb 1d49 a13d 67ed 9fbd
000001c0: ca6e cabc 0100 b0bb 1962 c43c 8c73 d0bc
000001d0: 7656 f13c 6263 0c3d 3743 f6bb f1b1 7f3d
-0.0029349308 0.050363924 -0.007982625 0.034549385 0.0557619 0.056674857 -0.030344075 -0.006671208
0.058263894 0.12024745 0.03424457 0.03601393 0.041418746 -0.022462368 -0.01340471 -0.030405996
0.03217601 0.008964465 0.020873489 0.057872754 0.034072984 0.014699379 -0.026874268 -0.041404266
0.051659748 0.054761514 -0.037573278 -0.019718675 0.048511297 0.038945887 0.12298931 -0.013147528
0.014996992 0.05689791 0.022495113 0.05343659 0.02664624 0.03069794 0.036808062 0.12120667
-0.0005619392 -0.046403922 -0.011884755 0.013944652 0.016038146 -0.025297578 0.10050158 0.05334829
-0.0005299927 0.009507896 0.017885273 -0.01956263 -0.018153032 0.04495585 0.07007456 0.020614345
-0.02410122 0.010056668 0.0047029275 -0.083759695 -0.02793476 -0.023898734 0.051858332 0.018604148
-0.0098083755 -0.0089700855 -0.040445495 -0.01826185 -0.004816243 0.061126295 -0.008309412 -0.07031846
-0.034947287 -0.022681829 0.031814422 0.00540597 0.062419787 0.0069787125 -0.02488978 -0.0063075586
0.07443345 -0.013039912 0.105230786 0.0292091 -0.025339844 0.0014063432 -0.0422759 -0.036461323
0.017506447 0.007465315 -0.03305573 0.023088733 -0.047589973 0.08728479 -0.046619397 0.057356834
-0.045241527 0.008444179 -0.013115574 -0.046721455 0.072434105 -0.0479812 0.011942703 0.023670368
0.041144934 -0.020215914 0.024726072 0.011500034 0.03295921 -0.004231656 0.078752734 -0.07808953
-0.024711031 -0.005371094 0.023972558 -0.025445722 0.029460173 0.034274466 -0.007515337 0.062425558

weight f4 [84, 120]
00000000: 32d7 903d bd6f 12bd ea5f 023e 56b9 96bd
00000010: 26aa 333e ab1a 923d 9b70 d43c 7468 913d
00000020: 0574 c83b cab9 4e3d 2d7e 1cbd 4ad7 b1bd
00000030: a413 9d3d 64e3 82bc dd6a f8bc cbff 683c
00000040: e63e a1bb 8086 203c d8b3 c83c a6d6 25bd
00000050: b98a b9bd 3278 27bb 0856 043c cc24 873d
00000060: b16d 22bd 0727 98bd a80d 4fbc a960 f9bc
00000070: a2c7 57bd 6f1f b93d 068a 5d3b 902d b03d
00000080: b60f c1bd e213 343e 7586 203d 14f5 afbc
00000090: fbd3 0b3d aba9 c7bb ecd8 97bd d326 bcbd
000000a0: 1efe 3d3c 1f78 05bd 5f10 4abc 42b4 e0ba
000000b0: 4c4f 023e 3568 8d3d bd5d b03d 1a4a a13d
000000c0: f1e6 ea3c 5cea 8abd 3033 8bbd 0d84 94bc
000000d0: 66ba bb3c 9f4f 043c 7df3 233d e524 663d
000000e0: d61f 27bb 5787 3fbd 631c 7cbd 45db 66bd
000000f0: b536 39bb 9376 8a3d f3a1 ab3d ad6f 3a3d
00000100: 8582 aabd 5f92 dcbd e530 923d 8ec6 d93d
00000110: d9f1 593d 75fc 8b3c 650d a8bd f821 2fbc
00000120: a70e 5e3d fe99 70bd 7734 d7bc 3989 053e
00000130: 683e b2bd 7b4d 3fbc 666d 7e3d 3166 773d
00000140: 8036 b9bd 6901 38bd d686 f23d f1ae 78bd
00000150: 746d 3cbd b3f0 96bc 18fb 203d 22f6 7cbd
00000160: 0e1f 02bd 7332 fc3c 893f 47bd c4fe 20bb
00000170: 8ba6 45bd 14c9 b93d 1fe6 8fbd 72bf b03d
00000180: 6d21 8cbd d987 933d 8c31 95bd f61a 70bd
00000190: d878 463d 0075 6e3c e2df f8bc c517 8339
000001a0: 81ec 663d e5dc 57bd a45b 8f3d 4971 793d
000001b0: 9c6b fd3d 102e 333c 4d2c fbbd ee08 b73d
000001c0: 2207 d8bc f9b2 68bd 35a5 1cbd 6130 bf3d
000001d0: ddf4 7c3c d9e7 36bd 56a4 69bd 668c c0bb
000001e0: a412 233e ba3b 99bc d311 173d 2052 a13d
000001f0: 8a03 243e ad88 5f3d 5d8b d1bb 856c 373d
00000200: 8856 833d d4e0 113d a455 1e3d 6179 18bd
00000210: beeb 94bd 9068 3d3c 953c 713b 99e0 aabd
00000220: fed2 77bd 7fb9 10be bdcb 5bbd 80dc 1cbc
00000230: c2a9 a0bd 9e3c d8bd a537 8d3d 548b 8a3d
00000240: c62c fc3d f98c 1ebd 7a4f adbd 78c1 0abd
00000250: 4282 7b3d 6bae 90bd 0aee cf3d d3e4 71bd
00000260: 0d4c 5dbd e450 cc3c 2f16 043d e5be a9bd
00000270: fd92 cd3c 8a56 6b3d ab95 7ebc 4d5a c1bc
00000280: a619 00be 0292 5d3d c405 423e 2426 a43d
00000290: e7a0 bb3c 28d1 813d f6e0 e2bd 4050 983c
000002a0: d765 143e e7fe 103c 12d7 d3bc 15f7 dabc
000002b0: 20fb 2a3d 2013 28bd 0e3d 373d 873d ab3d
000002c0: 1fc2 41bd 5379 bcbd faba 63bd bf0f 3abe
000002d0: 1418 75bd b2dd 35bd 678d 1b3e 9f5e bebd
000002e0: c638 cabd 8dc0 f43d 14ba c53d 1026 d33c
000002f0: ea85 7abe 5c40 48bd bf10 583d b093 c6bc
00000300: 716d 1fbe 91c8 b43d 835b 243e 1a2a 6bbe
00000310: 5df6 a33d a8dd 143e f2ec 943c be63 b3bc
00000320: fca1 703c 5f98 a73d f7c9 b03d aba6 7d3d
00000330: 9ec2 fc3d 74c7 6dbd db3d cdbb 97e5 1c3d
00000340: 0464 983d 7a62 253e 569f 033d a65a bbbd
00000350: 17a7 7e3c 4895 673e ad1c e3bd 573f 51bd
00000360: 1217 f1bb da4d 26be b8ae 213c bb9c 40bd
00000370: 9f38 8d3c d69a b0ba 5b4d 40bc 483b c73d
00000380: d0cd 243e 61cb aabd 4d24 5c3d dc5c a4bc
00000390: d009 dabd 5a6f 82bc 34fa c5bd 24bb 50bd
000003a0: 8976 68bc 876f 9bbc 816c 45bd f2c1 23bd
000003b0: 31ed eb3d eb71 59bd 8cb4 8e3d ab14 0a3e
000003c0: 943d 7cbd e0f8 40bc a960 c23d ee7a 7e3d
000003d0: 54db f93b 6166 aabd 437c 723d 9c81 9cbd
000003e0: 1476 b23d 7652 dcbd e29e 1b3c 1416 babd
000003f0: 51ab 513d 816d 853c e851 7d3c 223b a13d
0.07072295 -0.035751093 0.12731901 -0.07359569 0.17545375 0.07133993 0.0259326 0.07100001
0.006117346 0.05047015 -0.038206268 -0.08683641 0.07669762 -0.015977569 -0.030324394 0.014221142
-0.004920828 0.009797692 0.024499819 -0.040487908 -0.09059662 -0.002555382 0.008077152 0.06598815
-0.03965539 -0.07429319 -0.012637533 -0.030441599 -0.05268062 0.090391986 0.0033804192 0.0860244
-0.09426825 0.1758571 0.03919073 -0.021479167 0.034137707 -0.006093224 -0.074144214 -0.09187093
0.011596231 -0.03258526 -0.012333005 -0.0017143565 0.12725562 0.069046415 0.08611629 0.07875462
0.028674575 -0.06782982 -0.067968726 -0.018129373 0.02291603 0.008075624 0.04002713 0.05618753
-0.0025501153 -0.04675993 -0.06155051 -0.056361455 -0.0028261368 0.067608975 0.08380499 0.04551666
-0.08325676 -0.107701056 0.07138232 0.106335744 0.05320916 0.017088154 -0.0820568 -0.010689251
0.054213192 -0.05874061 -0.026270134 0.13040628 -0.08703309 -0.011676188 0.06211605 0.06040019
-0.09043598 -0.04492322 0.11842124 -0.060713712 -0.04600282 -0.018425321 0.03930196 -0.061758168
-0.031767897 0.030785775 -0.048644576 -0.0024565915 -0.04825453 0.09071556 -0.07026314 0.08630265
-0.06842313 0.07203645 -0.07284841 -0.058619462 0.04845509 0.014554262 -0.030380193 0.00025003977
0.05637789 -0.052700896 0.06999901 0.060899053 0.123740405 0.010936275 -0.12264309 0.0893725
-0.026370589 -0.056811307 -0.03824349 0.093353994 0.015439239 -0.0446547 -0.05704149 -0.005876112
0.1592508 -0.018705238 0.036882233 0.07876992 0.16016975 0.054573704 -0.006394787 0.044781227
0.06412989 0.035614803 0.038655892 -0.03722513 -0.07271527 0.011560574 0.0036809791 -0.0834362
-0.060503952 -0.14133261 -0.053661097 -0.009574056 -0.07844879 -0.10558437 0.06895379 0.06764856
0.12313227 -0.03870866 -0.084624246 -0.033875912 0.06140352 -0.070645176 0.10152824 -0.059056114
-0.054027606 0.024940915 0.03224772 -0.08288363 0.025094504 0.057455577 -0.015538613 -0.02360263
-0.12509784 0.054094322 0.18947512 0.08015087 0.022903873 0.063387215 -0.11078064 0.018592954
0.14491974 0.008849836 -0.02585939 -0.026729146 0.041743398 -0.041033864 0.04473596 0.08361345
-0.04730427 -0.09202828 -0.055598237 -0.18170069 -0.059837416 -0.04440088 0.1519066 -0.09295391
-0.0987411 0.11950789 0.09654632 0.025774986 -0.24465147 -0.048889503 0.052750345 -0.024240345
-0.15569092 0.088273175 0.16050534 -0.22965279 0.080059744 0.1453768 0.01817939 -0.021898147
0.014687058 0.08183359 0.08632272 0.061926525 0.12341808 -0.05805154 -0.0062634773 0.03830489
0.074409515 0.16150847 0.032134376 -0.09148149 0.015542767 0.2261554 -0.11089454 -0.051085796
-0.0073574865 -0.16240636 0.009868316 -0.04702447 0.017238913 -0.0013473879 -0.011737193 0.09728104
0.16094136 -0.08339573 0.053745557 -0.02006381 -0.10646403 -0.015922237 -0.09666863 -0.05095972
-0.014188417 -0.018974079 -0.04819918 -0.039979883 0.1151985 -0.053087156 0.0696803 0.13484447
-0.061582163 -0.011778086 0.09491093 0.062128954 0.007625023 -0.083203085 0.059200536 -0.076419085
0.08713928 -0.10757916 0.00949833 -0.09086242 0.05118877 0.016287567 0.0154614225 0.07872607

bias f4 [84]
00000000: 9f7a c43d 95ef 663e ffe5 ac3d 34fb 62bd
00000010: ac06 913d 8b69 38bd aecf 3cbd cb31 803d
00000020: 9cf4 aa3c 149b 3f3e eb78 033e 1727 f5bc
00000030: 5aea 883c 93d2 9b3c cc22 a2bd 8562 363e
00000040: 37d9 283b aa2f 92bd 5bdd 8a3c e556 0fbe
00000050: 8a58 2ebc ad0b 633d bd5e f8bd 5582 073d
00000060: 4df7 923d 26bd 513c bf2a 20be ce37 603d
00000070: e12b a63d 3b5f 9cbd 9ca8 97bd 5cca 52bd
00000080: 91ff af3d 0ff4 c2bd e382 2d3e 71b6 383b
00000090: 0017 a63d fc5a 56bd 4373 373d f5dc ca3d
000000a0: 4f07 b13d 35f3 a63d 69ac 293e c275 65bd
000000b0: 526c 1bbd dba6 22bd a802 a2bd d734 4e3d
000000c0: 6050 36bc 5a06 7d3d 623d 8a3c 8de6 093b
000000d0: b46e 5cbd c76b f13d b4a9 ef3d d32f 8d3d
000000e0: 6fa2 1d3d df9d fa3c 3780 153d d4a3 fb3d
000000f0: 96b1 b7bd 813a 4cbd e795 1dbd de30 013e
00000100: 4da1 eebb 69e2 9f3c e3ad ca3d 896e 2b3e
00000110: d418 47bd 7e09 98bd 7c7c 883d e4ef 15bd
00000120: fdb7 8ebd c96d 2bbd e25e d5bd 173d 753d
00000130: aa6b 833b 7405 a438 7f64 fcbd 64b8 c93d
00000140: 821a 273e 7bef fe3d 09c5 c43c 8c5c 6abd
0.095937006 0.22552331 0.08442306 -0.055415347 0.07081351 -0.04502253 -0.046096496 0.06259497
0.020868592 0.18711501 0.12839095 -0.029925866 0.01671331 0.019021308 -0.07916793 0.1781102
0.0025764236 -0.071379974 0.016951254 -0.13997991 -0.010641227 0.055431057 -0.12127445 0.03308328
0.07176075 0.012801444 -0.15641306 0.05474072 0.08113838 -0.07635351 -0.074052066 -0.051462516
0.08593667 -0.09519207 0.1694446 0.0028184915 0.08109856 -0.052332863 0.044787657 0.099054255
0.08643972 0.08151857 0.16569676 -0.056020506 -0.0379451 -0.039709907 -0.07910663 0.05034336
-0.011127561 0.061773635 0.016874973 0.002104196 -0.053816512 0.11788135 0.1170229 0.06893887
0.038484987 0.030592857 0.03649923 0.12287107 -0.08969419 -0.04986048 -0.038473036 0.12616298
-0.007282412 0.01951714 0.098964475 0.16741385 -0.048607662 -0.074236855 0.066643685 -0.03660573
-0.06968687 -0.041852746 -0.10418488 0.059872713 0.0040106373 7.821145e-05 -0.123238556 0.09849623
0.16318706 0.12448021 0.024019735 -0.057217166

weight f4 [43, 84]
00000000: f5a0 4d3e 5be9 81be ae25 babd 5433 863e
00000010: 60eb 72bc 3c22 a43d 42bf 50bd d68a 463c
00000020: d29a 013e ed31 2b3e f3de 67bd 803e a0bd
00000030: b846 aa3d 397c b33c dc3f 5dbc a291 86be
00000040: 2e3f 12be e816 9abd 06ce 0dbe 39ac a83c
00000050: 35b4 39bd b23f 0f3d 29c3 adbc 057f 41be
00000060: 21c3 493e 962b 1d3d 6b24 ae3d a798 0abd
00000070: c4df b4bd ccc6 a23d 568c 59bd c8c1 973c
00000080: fe33 cdbd df6c 03bb f945 b2bd de51 1abe
00000090: cdce 34bd ba0d 55be 2c83 4ebd 0623 19be
000000a0: 468f 853e d509 c43d 5aee 24be cb8d df3c
000000b0: d1dc 983d 94f4 c53d be1d a2bd f08f 7ebd
000000c0: f76d d3bd b600 793d 6ec6 933d ac2d 583e
000000d0: f95a 78be 9a2e 3cbe f5d3 683d 1f47 2b3d
000000e0: 09a7 103e e83b 67be 3bb5 463d a1c2 543d
000000f0: 343f 02be 3f17 fdbd 671b d0bd 04a2 ef3d
00000100: 930f 873d b782 d53c b060 05be 9fdb c9bd
00000110: 08f7 433d ea0c 30bd ddfa 27bc 4c05 e7bd
00000120: b6be 2b3e 3371 77bd 2372 563c d044 3e3d
00000130: e2f7 7f3d ff9f 353c 7fb2 a9bd 8756 663c
00000140: 7aab b3bd 9dfd d1bc 3287 243e b0eb c53d
00000150: 1db3 3f3e 6d2f 1b3e 2d4d 0fbd 9580 3dbc
00000160: a653 cebd f20e 8dbc f5a3 283d e700 db3c
00000170: e6c8 883d f7ee c23d 21dc 843d 67ea 1dbd
00000180: 4713 6c3c b715 2ebd 50fe 2cbd 383b b1be
00000190: a6a7 30be 2032 d23d 43a1 5dbc 0b24 e6bd
000001a0: 2927 bf3d c01a bd3d d04a f8bc 38c0 abbd
000001b0: 87e8 743d 64be 363c 4782 6a3c f73d afbd
000001c0: 313c db3d 6f82 f6bd f354 d93d bda4 453d
000001d0: 6c60 abbe 4cd0 4bbe 6dc0 4f3d d8dc 93bd
000001e0: ec84 e83d e877 6abe e83b 30bd d786 6cbd
000001f0: 65e0 743e 8f6e b3bd c3f9 55bd b819 273d
00000200: e4e1 753e 5472 163e 6fe5 813d 49d0 da3d
00000210: 4459 9cbd 4867 eabc cc7c b53e 619d 1f3e
00000220: 05c0 73bd 3f42 d1bd 4253 a73d 6401 2ebd
00000230: cbc7 c8bc 1d14 72be 6bf3 113d 0720 a03d
00000240: 7cef 0bbd 33de 5f3d 2d5a c2bc f064 c03d
00000250: 6364 183d f6f1 1b3e 189c 86be c98a 823d
00000260: 94b5 3fbc a1cd 6bbd 4ffa 633d db1d 05bc
00000270: e5ce e83d 7e07 f1bd 3699 30be ce6d b8bd
00000280: 183f 803c dea1 1e3d 6e21 64bd 315f 543d
00000290: e7e8 92bd a189 ba3d db78 883d 5337 063d
000002a0: 6505 493e f7f6 813e 6f95 1e3e 0df3 c03c
000002b0: 405e 9a3d cfbe 273d f351 913c 4f1b 28be
000002c0: 6088 56bd 64aa 5d3e 5009 183e 00b1 ad3d
000002d0: c292 df3d 1c24 d5ba a95f 7b3d b48b d5bd
000002e0: 55b4 d8bd 9db6 fa3d 23ab 3ebe 87a8 13bd
000002f0: b7e4 a8bd feb2 fbbc ae64 dbbd 7e6c 06bc
00000300: 1c17 103d 96f5 d4ba 860d cfbd f4d9 37bd
00000310: d66e d03d 7040 563d 77e2 0f3e 0f5b cfbd
00000320: d406 693d 9187 81bd 6437 143e c74d bd3c
00000330: 1123 02bd 2abc 1cbe fbdd 693c d16c 44be
00000340: 7bff 263e bb5d 8a3c b862 7ebd c411 3fbd
00000350: 57d2 0c3d a64d 573e dad3 a83d e48c 5ebd
00000360: 8b91 b4bd 6b33 bdbc c570 973e 7dc6 693e
00000370: d94d 41be eab4 b8bc a586 733e df69 05be
00000380: a87c 583d b7c7 7abe fdbb 2ebd bc21 413d
00000390: ce7c eb3d f281 17be 9e99 2e3c 596e e6bd
000003a0: ee2f b03d bc43 05bd 6457 d83d ae77 813d
000003b0: 0cc1 f4bd ebf3 0739 9961 85bd 55bd 3f3d
000003c0: 787c 9c3c 82fd 473d 8228 05be b846 453d
000003d0: aa5b 8abe 2480 bdbd d629 5abe 6b80 023d
000003e0: 7a09 96bd 3d4b 133e 1278 fbbd c40a 5fbd
000003f0: dffd 9b3d e4bb 83be 6eca 953d 39af dcbd
0.20080931 -0.2537335 -0.09089218 0.26211035 -0.014826626 0.08014342 -0.050963648 0.012118062
0.12656716 0.16718264 -0.056609105 -0.07824421 0.0831427 0.02190982 -0.013503995 -0.26282984
-0.14281914 -0.075239 -0.13848123 0.020589935 -0.045337874 0.034972854 -0.021211224 -0.1889611
0.19703342 0.038371645 0.0850304 -0.033836987 -0.088317424 0.07948074 -0.05311235 0.01852502
-0.10019682 -0.0020053906 -0.087047525 -0.15070292 -0.044142533 -0.20806018 -0.050418064 -0.14954767
0.2608587 0.09572188 -0.16106549 0.027289292 0.074639924 0.0966579 -0.07915829 -0.06214899
-0.103237085 0.060791694 0.07215582 0.21111172 -0.24253453 -0.18377152 0.056842763 0.041815873
0.14126219 -0.22581446 0.04851268 0.051943425 -0.12719423 -0.123579495 -0.101614766 0.11700824
0.065947674 0.026063306 -0.13025165 -0.098563425 0.04784301 -0.042981066 -0.010252682 -0.11280307
0.16771969 -0.06041069 0.013088736 0.046452343 0.06249226 0.011085509 -0.082859986 0.014058716
-0.08772941 -0.025633628 0.16067198 0.096640944 0.1872067 0.1515481 -0.03498571 -0.011566301
-0.100745484 -0.01721904 0.041171987 0.026733829 0.06678943 0.09518235 0.06487299 -0.03855362
0.014408893 -0.042501178 -0.04223472 -0.34615493 -0.17251453 0.10263467 -0.013527217 -0.112373434
0.09333641 0.09233618 -0.03030911 -0.08386272 0.059792068 0.011153791 0.014313287 -0.08556741
0.1070484 -0.12036597 0.10611906 0.04825281 -0.33472002 -0.19903678 0.05072062 -0.07219857
0.11353478 -0.22897303 -0.04302588 -0.05774578 0.23913725 -0.08761322 -0.052240144 0.04079601
0.24011952 0.1469205 0.06342589 0.106842585 -0.076342136 -0.028613701 0.35446775 0.15587379
-0.059509296 -0.102177136 0.08170177 -0.042481795 -0.024509331 -0.23640485 0.035632532 0.07818609
-0.034163937 0.054655265 -0.02372464 0.09394252 0.03720511 0.1522902 -0.26290965 0.063741274
-0.011701006 -0.05756915 0.055658635 -0.008124794 0.11367587 -0.11769007 -0.17245945 -0.090053186
0.015655085 0.038728587 -0.055695944 0.051848594 -0.07173329 0.09108282 0.06663676 0.032767605
0.19630964 0.25383732 0.15486692 0.023553396 0.07537508 0.040953454 0.017739272 -0.16416667
-0.05237615 0.2164703 0.14847302 0.08481026 0.10916664 -0.0016261372 0.061370526 -0.10427037
-0.105812706 0.12241862 -0.18619971 -0.036049392 -0.08246749 -0.030724999 -0.107125625 -0.0082045775
0.03517829 -0.0016247507 -0.10110001 -0.04488559 0.1017739 0.052307546 0.14051233 -0.1012479
0.056891277 -0.06324685 0.14474255 0.023108376 -0.031771723 -0.15306154 0.014274116 -0.19182135
0.16308396 0.016890397 -0.062105864 -0.046647802 0.034380283 0.21025714 0.082435325 -0.054333583
-0.088168226 -0.023095807 0.29578224 0.22829624 -0.18877353 -0.022547204 0.23781832 -0.13028668
0.052853256 -0.24490248 -0.04265975 0.047151312 0.11498414 -0.14795664 0.010656742 -0.11251516
0.08602892 -0.0325353 0.105635434 0.06321655 -0.11950883 0.0001296547 -0.06512756 0.04681142
0.01910232 0.04882575 -0.13003734 0.048163146 -0.2702306 -0.092529565 -0.21305022 0.03186075
-0.07326026 0.1438417 -0.12278761 -0.054453626 0.076167814 -0.25729287 0.07314001 -0.107756086

bias f4 [43]
00000000: b591 abbd 8426 3cbc 4d7d ad3d fd49 3d3e
00000010: 8a93 7e3e bedc 773e bbba a53d 3577 913e
00000020: becd 5e3e 0f5e f0bd 1ee9 c33e 9e76 023e
00000030: c7c8 613e 7b22 dcbc 3371 b8bd 38bf 43bd
00000040: 8c50 30be a2e8 c93d f717 dd3c b095 73bd
00000050: 4c2a 773d 6620 b2bd cdab 04be 0cfa 29be
00000060: e38d 2abe df69 0c3e b34b 2abc f092 a33c
00000070: 6378 0dbe 10d2 3ebe 6d7e 07be c819 183e
00000080: 7a53 57be 0930 f5bd 9cd7 cbbd 6bdc 4dbe
00000090: 659f 62bd 3134 5ebe a14c a83d 6b66 26bc
000000a0: e73e 30be 0cae 87be 9775 4c3c
-0.08377401 -0.011483792 0.08471165 0.18485256 0.24860969 0.242053 0.08092257 0.2841126
0.21758172 -0.1173669 0.38263792 0.12740561 0.22049247 -0.02687191 -0.09005966 -0.047789782
-0.17218226 0.09858824 0.026988966 -0.059468925 0.06034307 -0.08697586 -0.12956162 -0.16599292
-0.16655688 0.13712262 -0.010394025 0.019967526 -0.13815455 -0.1863482 -0.13231821 0.14853585
-0.21027938 -0.119720526 -0.099532336 -0.20103614 -0.05532779 -0.21699597 0.08217741 -0.010156254
-0.17211495 -0.26499975 0.0124792075
