netAdam.pth (torch_old, 274988 bytes, 10 tensors)

weight f4 [6, 3, 5, 5]
00000000: ab0d e6bd b9a4 0bbe dec0 08be cfb3 83be
00000010: d796 35be a361 b83d 660b 613e 7843 043e
00000020: 9f18 b4bd f4ba 6cbe e189 f93d e704 9f3e
00000030: 85c0 583e b099 5b3b 19e9 f4bd a37a cf3d
00000040: 6a8d e63d 804f 023e 7a89 bf3d 1766 7cbd
00000050: 3569 b5bc 9e1c 683e 8b2e c93d 604c 8a3d
00000060: 5f8e babc d0f1 8dbb 3e7a 2d3d b80d 113d
00000070: fb6e 1e3d 926f 18be fbb6 493e 55be 9c3e
00000080: 0dca 923e 0d54 733e dbc3 fc3d cb22 883e
00000090: c7ce d63e bbd7 cb3e c579 2b3e 7709 153e
000000a0: 9eae 9b3e 9e7a a33e 89c8 b63e 1550 043e
000000b0: df03 363e 0c40 9b3e 9a66 2b3e 4ea0 a83e
000000c0: 00ce e43d 1437 b33c 35d9 0d3e 9bbc 103e
000000d0: 117d d43d 085b c3bc b438 a2bd 086e 143e
000000e0: 43dd 683e 134f c23e bf51 693e 8782 9c3d
000000f0: 6bfe cb3e 9185 983e b243 e33e 37c3 863e
00000100: ca04 523e 0ac6 423e 6944 f03e 8751 da3e
00000110: a35c 703e d395 643e 12e3 913e 528f b53e
00000120: 91fd 993e c2bb 833e 495b cc3c b370 3bbd
00000130: 2b36 2d3c 1d1a c83d 9db8 9b3c 6d30 e4bd
00000140: 1031 d33d f6c8 96bd fb1a 32bd acec 7b3d
00000150: 6a49 d1bb 18c8 0ebc 2aaf 98bd d937 e8bd
00000160: f3b4 883d a74a 483d ccc6 723d 8f75 1c3d
00000170: 893b e4bd cf40 0a3d 599a ce3d acfd 98bd
00000180: 5bbe 443d c337 d63d 4ddd 483b 0045 eebc
00000190: 7dc2 9dbd b4c4 9b3c bdec 9d3d 3a28 d6bd
000001a0: 15d8 5bbc dce5 ae3d 85a7 ccbd 66d8 a83d
000001b0: b26e 9cbd 0d83 aebd 582f 3dbd 162e bd3d
000001c0: c09b bfbd f911 d1bd 0892 ef3c 77f7 3d3c
000001d0: 65b6 b3bc 33e1 2ebd 678c c4bd f648 c2ba
000001e0: b6b3 47bd d2a6 e4bd 1c8d db3d 2bbb a3bd
000001f0: 037e c0bd 457f 483d a651 cabd b3b4 a6bd
00000200: 7c5c a93d d42e 27bc b05c 003b c8fa 6b3d
00000210: 1d88 1ebd 0983 b13d 19b8 b8bc 7b4d 4cbd
00000220: c1c2 813c 5dbb 0dbd 799f 5dbd abc1 833d
00000230: bcfa 29bd da21 babc ea48 6bbd ea71 a1bd
00000240: 4371 aebd 3e3a be3d 5691 afbd 5b99 f1bb
00000250: 80bd 8d3d eb1a a3bd 1581 9e3c 8e26 453e
00000260: f68f 183e cbea 6d3e 16bf b93d ef25 573e
00000270: ca66 423e 1935 423e cb9d 643d 36ff 0f3e
00000280: 3673 8c3d a99c 5b3e b1af 1c3e 3970 b13d
00000290: be45 383d 5955 e93d 5eb7 1f3e 7f9c 523e
000002a0: 22ab e03d 3567 033e 8bc3 253c 94f5 cd3d
000002b0: 8859 163e 56c1 1b3d 6bc1 603e a4b7 cb3d
000002c0: bf78 1d3d aacb 0bbd d29d 2ebd 419d 023e
000002d0: f8b4 87bd f152 203d 1cab e5bd 7198 633d
000002e0: 3201 a83d addc b3bd a004 26bc 3ed0 e2bd
000002f0: 35f5 5ebd 124c 9abd 2d9c eb3d 8ee7 f03c
00000300: da79 a9bd 41a4 fdbc 614d 2ebe 2de3 92bc
00000310: ba77 5f3d 67f4 8d3d 3cb3 563d 333d 5fbc
00000320: 2902 d03d eaea 813d b0c6 19be f355 6cbd
00000330: eb18 ddbd 7e78 c1bd 5473 32be 778c 8cbd
00000340: 594a 20be 8cb9 be39 7ed9 7ebd 1ed7 62bc
00000350: 5f74 37be e99e d8bd 4c2e 15be de3f ef3d
00000360: 9687 d6bd 95f4 23be 1d59 b5bd 39e1 18be
00000370: 0b36 dd3d 5db7 c23d 39f8 f6bd 96fd 0dbe
00000380: b3b1 47be df88 233d 3c99 763d d9c8 493e
00000390: 1bc7 f23d ef71 9f3b d2ef 803d 29a7 993e
000003a0: 5e5d f13e df82 c93e 48c5 383e cc70 983e
000003b0: 6079 d13e 9518 db3e 88cf dc3e 866b 433e
000003c0: aaa0 dc3d ed7c d03e e36e 063f 7517 c03e
000003d0: a652 d53d 3023 293e f45f 833e 9997 803e
000003e0: c3cb 213e 5cb4 be3d 677d 8e3d 3312 683e
000003f0: 9d00 983e 517d 853e f555 d13d 41f8 5d3e
-0.11233076 -0.13637055 -0.13354823 -0.2572312 -0.17733322 0.09002998 0.21977004 0.12916362
-0.087937586 -0.23118192 0.121845014 0.31058428 0.2116719 0.0033508353 -0.11958522 0.10130813
0.11257441 0.1272564 0.093523934 -0.061620798 -0.022144893 0.22667167 0.098233305 0.067528486
-0.022772966 -0.004331805 0.042352907 0.035413474 0.038680058 -0.1488631 0.19698708 0.30613962
0.28669778 0.23762532 0.12342044 0.26589045 0.41954634 0.39813027 0.1674567 0.14554392
0.3040666 0.31929487 0.3569987 0.12921174 0.17774914 0.303223 0.16738358 0.32934803
0.11172104 0.02187685 0.13852389 0.14134447 0.10375417 -0.023847118 -0.079209715 0.14495099
0.22740655 0.37950954 0.2278509 0.076420836 0.39842543 0.29789403 0.44387585 0.26320812
0.2050964 0.19020858 0.46927193 0.42640325 0.23472838 0.22322778 0.28493553 0.35460907
0.30076268 0.25729185 0.024945872 -0.045761775 0.010571997 0.09770606 0.019008929 -0.11142049
0.10312092 -0.07362549 -0.04348276 0.061505005 -0.0063869255 -0.008714698 -0.07455285 -0.11338777
0.06675138 0.04889932 0.05927162 0.03819805 -0.11144168 0.033753213 0.10088033 -0.07470259
0.0480331 0.104598545 0.0030649484 -0.029085636 -0.07703111 0.019014694 0.0771117 -0.10456891
-0.013418217 0.08539936 -0.09992889 0.082444 -0.07638301 -0.0852109 -0.04618773 0.09237306
-0.09355879 -0.10208506 0.029244438 0.011594645 -0.021937558 -0.042695235 -0.09597092 -0.001482277
-0.04875537 -0.11164631 0.10720274 -0.07994684 -0.09399035 0.0489495 -0.098788545 -0.081399344
0.08269593 -0.010204036 0.0019586496 0.05761221 -0.038704026 0.08667571 -0.022548722 -0.04987858
0.015839936 -0.03460251 -0.054107163 0.064334236 -0.041498885 -0.02272122 -0.057442583 -0.078830555
-0.08517697 0.092884526 -0.085726425 -0.0073730177 0.0692091 -0.079641186 0.01934866 0.19252989
0.14898667 0.23234098 0.0906965 0.21010564 0.18984523 0.18965568 0.055814546 0.14062199
0.06857912 0.2144648 0.15301396 0.08663983 0.044988386 0.11393232 0.15597293 0.20567511
0.10970141 0.12832339 0.010117422 0.10056606 0.14682591 0.038026176 0.21948783 0.09947136
0.03844523 -0.034129776 -0.042630978 0.127553 -0.06626314 0.0391416 -0.11214277 0.0555653
0.08203353 -0.08782325 -0.010132939 -0.11074875 -0.054433066 -0.075340405 0.115043975 0.029407289
-0.082751945 -0.030962111 -0.17021705 -0.017930591 0.05455754 0.06931382 0.052417025 -0.013625431
0.10156662 0.063436344 -0.150172 -0.057699155 -0.10795768 -0.0944681 -0.17426807 -0.06862729
-0.15653361 0.00036377867 -0.062219135 -0.013845233 -0.17915486 -0.10577185 -0.14568442 0.116821036
-0.1047508 -0.1601127 -0.08854888 -0.14929666 0.108013235 0.0950763 -0.120590635 -0.13866267
-0.1950138 0.039925452 0.06020473 0.19705524 0.118543826 0.004865877 0.06295742 0.30010346
0.47141546 0.3935766 0.18044007 0.29773557 0.40912914 0.42792192 0.43127084 0.19083986
0.10772832 0.4072031 0.5251295 0.37517896 0.104161546 0.16517329 0.25659144 0.2511566
0.15800385 0.093117446 0.06957512 0.22663192 0.29687968 0.2607217 0.10221473 0.21676733

bias f4 [6]
00000000: 71d6 1c3e 0d25 b5bd 149e 513d 7cb9 6fbe
00000010: b728 7c3e de7a bebd
0.15316178 -0.088449575 0.051176146 -0.234106 0.24624906 -0.09300779

weight f4 [16, 6, 5, 5]
00000000: fa2b aa3d acf3 733c fffa 393d 1e75 14bd
00000010: e81d 4b3c e0f8 3a3b 8567 30bd 6b24 c0bc
00000020: 54b3 563c c63f c93b c9dd a13d 8144 a13d
00000030: 3284 c83d 7d16 8dbc 3c3e f03d e836 ff3d
00000040: 8161 e83d 0ac8 2abd 0164 c1bc 0472 f03d
00000050: ffde d03d cfd9 af3c 9d99 e03d d1fb 413d
00000060: d3a1 5f3c dc95 6f3d 1a1c c0bc d2d6 9d3d
00000070: aae6 833d 8c65 cf3c d091 74bc 5cd8 433d
00000080: 14e2 efbc 848b 243d 04d7 97bd e6c9 293d
00000090: 0ca4 7b3d 6076 31bc 1e34 953d e0e4 90bd
000000a0: 3bc3 993d 4008 11bd a03a 033b f54c 40bd
000000b0: ed77 9ebd 4c12 93bd c62e 903d 2881 11bc
000000c0: 341a 5bbd e4d9 8c3d 3368 2b3d b6a4 a93d
000000d0: c646 1e3c 55b4 26bd 4262 fe3d a040 d2bb
000000e0: f4bd 04bd 1b15 dfbc e058 dc3d c512 9e3d
000000f0: 666f 53bd 5fcd 2cbe 803e 3dbc 3151 2c3d
00000100: 2f3c e23d 822e 43be cbbd dcbd 918b 9bbd
00000110: 2368 46bd e64b f2bb fd93 c6bd a953 c8bd
00000120: d069 c0bd e3ad 5abd 500b 463d 2b9c 6e3c
00000130: e734 473d 87c1 923d 49aa 953d 27ea 9f3b
00000140: db1f a0bd 3811 16bd f23c c33c 8b64 e33d
00000150: 8f43 52bd 98d2 84bd 8d33 d3bd 04ec 603d
00000160: 1c24 f63d 0580 b23d add5 e6bc c85f 1dbc
00000170: 9823 72bd 540a 5ebd f861 a83d 8bdc 86bd
00000180: efbc 1c3d 7e83 5b3d ae7e 60bc 2717 5ebd
00000190: 14ae 29bd 546b e93d 2bf6 9f3d ae2e 10bd
000001a0: a584 febc dc0b 63ba a037 093e 17ba 593d
000001b0: 494a ac3d 66ff 84bd f132 863d aeb1 d43d
000001c0: 3b7c d03d 8c55 c23c 9cfe a7bc 1da5 dc3d
000001d0: 2122 053e d5f4 a83c c2d2 e23c db92 f23d
000001e0: ad26 a03d bf92 383c 3c40 183e 1ac8 113d
000001f0: 3b33 083e cbc0 42bd aea9 5fbd 4cbb 6dbd
00000200: 0421 673d 3647 023d db4a 843d 3988 95bd
00000210: 59ce 48bc c2d7 873d 35ad 9d3c d0fc f33c
00000220: b423 613d 9070 343c 7a08 a53d 5ade 8f3d
00000230: 903b 523c 1520 fcbb 6a95 17bd c41f 123d
00000240: 983e 11bd b471 813c f87c d9bb ef34 3fbd
00000250: f2aa eb3c f913 c5bc d16f 4abd c7a0 c23d
00000260: 5f24 04bd a98b 08bd aea9 c93d 5894 363e
00000270: eba7 473e 74cc d93b 78db dabd eca9 0d3d
00000280: bc2c 2b3e 2283 493e 1656 67bc e5b3 3ebd
00000290: f0cf bebd 9261 873c 6588 773d 3f8f c83c
000002a0: eb01 3abd 3217 b53d a734 6d3d 908e 233d
000002b0: 1843 763d d876 043e 5f37 5d3e 34e3 e73c
000002c0: 0469 863d ebd5 11bd 4814 d83c bea7 213d
000002d0: 0891 563d c307 85bd f4cb 6d3d f028 d7bb
000002e0: 649b 4b3d 22b3 a63d fe16 64bd 21b2 a0bd
000002f0: 7c61 92bd a8cc 943d 8980 96ba 5b4b 98bd
00000300: 563a e4bc 1063 b43c b2c2 13bd 638e 99bd
00000310: d025 5ebc f3ed 7dbd 0038 843b 60ea 0abb
00000320: 84d4 78be 57c0 4ebe 8a69 863c 5934 3c3c
00000330: 84c4 123e fb7c 98be f508 74be adc4 72be
00000340: ffe3 0dbe 51f2 47bd de4f 9bbd e5bb 7fbe
00000350: 1f1c a7be 793c d6be 55ec 74be 6369 cdbd
00000360: 952b 35be 2748 c8be b3d3 94be dcc1 3abe
00000370: 6bec 7fbd 3063 10be a893 85be 0a6a b7be
00000380: 7a6b 3fbe 2939 fabd 6297 5c3c 5d03 c9bc
00000390: 5cb4 ce3d c040 c73d 88f3 003e c9dd 393d
000003a0: e920 08bb c605 bdbd 44ec d3bc 43fd d33d
000003b0: 6f1f 1fbb 7f50 56be 1f3d 86be 0ba0 c7bd
000003c0: 9f7c 0e3e 1772 a8bc fb7b dabd 9cdc 4ebe
000003d0: aeee 03be 1f84 17bd 91ee 8b3d 6b75 cabd
000003e0: 4263 683d 6349 4c3c 47d4 83bd 7217 3f3d
000003f0: 8fd8 063e 0230 e03d 8be8 f63d b5e9 933d
0.08309169 0.014889639 0.045405384 -0.036244504 0.012397267 0.0028529689 -0.043067474 -0.023454865
0.013104279 0.0061416356 0.0790363 0.07874394 0.09790839 -0.017222637 0.1173062 0.124616444
0.113467224 -0.04169468 -0.023607256 0.11740497 0.10198783 0.021466164 0.109667994 0.04735929
0.013649422 0.058492526 -0.0234509 0.07706989 0.0644048 0.025316976 -0.0149273425 0.04781376
-0.029282607 0.040172115 -0.07414058 0.04145231 0.061435744 -0.010831445 0.07285331 -0.070749044
0.075079404 -0.03540826 0.0020023957 -0.046948392 -0.07737718 -0.07181224 0.07040171 -0.008880891
-0.053491786 0.06877497 0.04184742 0.08283369 0.009660428 -0.04069932 0.12421085 -0.0064163953
-0.032407716 -0.027231744 0.10759139 0.07718424 -0.05161991 -0.16875218 -0.011550546 0.042069618
0.11046635 -0.1906071 -0.10778388 -0.075949796 -0.048439156 -0.0073943017 -0.09696195 -0.09781582
-0.09395182 -0.053388488 0.048350632 0.0145636005 0.048634436 0.07165819 0.0730787 0.004880208
-0.07818576 -0.036637515 0.023832772 0.111031614 -0.05133396 -0.0648548 -0.10312567 0.054912582
0.12018606 0.08715824 -0.02817806 -0.009605356 -0.059115976 -0.05420907 0.08221811 -0.06585034
0.03826612 0.053592198 -0.013702078 -0.0542213 -0.04142578 0.11397424 0.07810625 -0.035200767
-0.03106911 -0.000866113 0.13400126 0.053155985 0.08412606 -0.06494026 0.06552685 0.10385452
0.10179945 0.023722433 -0.02050715 0.1077368 0.130013 0.020624558 0.027688388 0.11844417
0.07819877 0.011265456 0.14868253 0.035591222 0.13300793 -0.047547143 -0.05460518 -0.05803995
0.05642797 0.031806193 0.0645959 -0.07301373 -0.012256228 0.066329494 0.01924763 0.029783636
0.05496569 0.011013165 0.080582574 0.07024832 0.012831584 -0.007694254 -0.037007727 0.035674825
-0.035460085 0.015801288 -0.006637212 -0.04668134 0.028768037 -0.024057375 -0.049423043 0.09503322
-0.03226125 -0.033336315 0.09846817 0.17830026 0.1949765 0.006646687 -0.106863916 0.03458588
0.16716284 0.1967893 -0.014119646 -0.04655828 -0.09317005 0.016526017 0.06043281 0.024482368
-0.045411985 0.08842315 0.05791154 0.03993088 0.06012258 0.1293596 0.21603154 0.028306581
0.06562999 -0.0356044 0.026376858 0.039466612 0.052384406 -0.06495621 0.058055833 -0.0065661594
0.04970874 0.081396356 -0.05568599 -0.078464754 -0.071475 0.072655976 -0.0011482398 -0.07436248
-0.027859848 0.022019893 -0.036074348 -0.07497861 -0.01355882 -0.061994504 0.004034996 -0.0021196827
-0.24299818 -0.2019056 0.016407747 0.01148709 0.14332777 -0.29782853 -0.23831542 -0.23707838
-0.13856505 -0.048815075 -0.07583593 -0.2497402 -0.32638642 -0.41843012 -0.23918279 -0.100298665
-0.17692406 -0.39117548 -0.29067764 -0.18238014 -0.062481325 -0.14100337 -0.26089215 -0.3582309
-0.18693343 -0.12217934 0.013463827 -0.024537737 0.100929946 0.09729147 0.125929 0.045377526
-0.002077157 -0.09229617 -0.025869496 0.1035104 -0.002428021 -0.20929144 -0.26218507 -0.09747323
0.13914727 -0.020562215 -0.10668179 -0.20201343 -0.12884018 -0.036991235 0.06832612 -0.09885677
0.056735285 0.012468669 -0.06436973 0.04665322 0.13168548 0.10946657 0.12056073 0.072223105

bias f4 [16]
00000000: 5f3b 073e 4eed 8c3d 4ec4 683e 1da5 2cbe
00000010: 7ce8 ef3c e2d4 833d d98d 0cbd 8bd3 773e
00000020: 5b5e 2f3e 8545 07be 3af6 843e 90f6 a73d
00000030: dc74 083e 101d dcbd 2e05 1f3e 3d56 21bd
0.13206242 0.068812 0.22731134 -0.1685986 0.029285662 0.064370885 -0.034314964 0.24201791
0.17125838 -0.13210113 0.25969106 0.08201325 0.13325828 -0.10747731 0.1552932 -0.039388884

weight f4 [120, 400]
00000000: 2a23 b9bb 1096 19bd 6eb1 c53a 4a44 5cbd
00000010: 2b15 0c3d 96c4 643c 1259 13bd 5bfa fe3c
00000020: 3a17 5b3d bfdb f2bc 1df7 0abc cb69 4a3d
00000030: f361 aebc 987e 633d 696a 98bb d5e6 5bbc
00000040: 6ce1 8e3a 59c7 223d 443e b6ba ba11 903c
00000050: e498 aebd 1828 8dbd 8123 913c b20b 2b3d
00000060: a7d8 8c3c cc87 e5bb 5742 3a3d 1bad 38bd
00000070: 3f99 263d 9f05 9f3d 450c bf3c 9cb9 f53d
00000080: 06c9 0b3e 9bd5 85bc 2834 b23d c91b 263d
00000090: f529 88bc e3a9 da3d 72da 583e 7eb9 3abc
000000a0: 98a5 ad3c f696 213e 9bdf 513d 3076 cb3d
000000b0: 0757 0e3c 5f4d b6bd 3dfb 16bd 0e36 60bc
000000c0: 0f22 22be f6a1 1fbc 3d46 3b3c 0116 ccbb
000000d0: 4b8d 26bd da1c f23d b86d 443d dcb2 62bc
000000e0: 0516 df3a 0838 5d3d 9fe5 003e 4ff0 3abd
000000f0: 05b9 353c 500c 72bc d6eb 95bc 286b 853d
00000100: f92e 033d 7b8f cf3c 7fad 51bd aa3e 0e3d
00000110: 9b9c 1abc ee90 993d db57 3ebd 63c0 6dbd
00000120: 1618 543c 3dde 153d 7e24 16be a0b7 693c
00000130: 43ee 59bd 84e9 883a a159 623d ad85 803a
00000140: ec6c 843d 4213 1d3e 12b3 d63d 112e 983d
00000150: 6b90 c03d 9574 a33d 1639 5b3d 1824 d33d
00000160: 594d e73d c872 773c d6c8 493d 0ca1 033d
00000170: 8a0e ae3c 0e9c cb3d 46df 8c3d f41a 52bc
00000180: 1c6d 953d 1a95 003e 0818 3b3d 12d1 c83b
00000190: b8cf 0dbd b108 a23c ceea 0abd f164 47bd
000001a0: 3ad1 063d 76a5 44bd a1ae 473b 4b38 bc3d
000001b0: 4b94 dc3c ead4 1bbc f3c4 913c c7e1 a23b
000001c0: d151 d93c d459 e6bc 5372 b13c 194c 00bc
000001d0: 281d 323d 185f b4bc 3399 76bc 58fa a33d
000001e0: d776 9cbd 1b90 7a3c 3255 20bd bb1d 3f3c
000001f0: 938c 0a3d b8ad 1abc 3486 843b 8a46 06bd
00000200: 51d0 963d 6cb7 1bbd de5b 093d 2639 e43d
00000210: 5134 e03b f8fb 893d 4321 613d 5930 063e
00000220: 33d0 1d3e 6a20 483d 6efe 8cbc 548a ae3d
00000230: b5f7 ba3d d79f 263e 7b9d bc3d ef9c 8b3d
00000240: f665 473d f0f6 b8bc 8081 22bc 3233 e63c
00000250: c89b cb3d 25f4 c9bc 6c5b 613b 9815 cf3c
00000260: 388d d43c 13a0 e83c b1f3 8b3c e6dd 853d
00000270: 557b 673d 5546 19bd 0ea1 b33c 3c50 883d
00000280: a80a e1bc a5b3 133c 95a8 a33d 2b4b 9eba
00000290: 6043 9d3d e595 403d a00c 16bd 3e93 113d
000002a0: 362a 873d 9214 18bc 085d 9e3c ffce fbbc
000002b0: fcb8 343d 1b55 01bd 3074 0f3d ea8c dbbc
000002c0: 9c67 2e3d 3fb7 8bbc 08d0 7e3d 81da 3b3d
000002d0: 72d6 113d a1a9 c23d ac9b 89bc aaa8 a8bd
000002e0: 3b37 dbba e7cf 5ebd a233 02bd 10ba 383d
000002f0: be4b 46bd 7175 41bc 6c59 32bc 331c 57be
00000300: bc1b 9cbd e9d4 f93c b41d 043e b3f7 5dbd
00000310: d9ec 7dbd 4e8d 03bd db65 513b 084f 1a3d
00000320: 7603 2c3d fc59 cdbb 6e8a a63d 7efa 413d
00000330: 5f62 84bd 5b8f 463d 3b20 2abd 3156 97bd
00000340: 4fb5 66bb a407 283d b2fe d53c b2a7 963d
00000350: d16b 6b3d 1d3e 68bd c38c 573d c5fc 89bd
00000360: c67c 87bd 816f f1bd 0d52 433d 25a1 95bc
00000370: 8e5c 8f3d ea2c d13c b102 f1bc 3d45 493c
00000380: daf6 68bd 052f 4d3d 2a78 263d 8e3a 423d
00000390: 4bab e23b 3f25 6abd d11b d83c 3660 19bd
000003a0: b638 e6bc fc7e 263d 0712 1e3d bcb0 c53c
000003b0: 5b7f c63d b924 203d 87d3 2e3d 726d 1bba
000003c0: c32d 12bd 825b febc 5e81 223d d161 963d
000003d0: 7696 1a3d 02bc 03bc 82b7 0b3d 690b e93c
000003e0: f4a2 64bc cc78 c33b c5e4 86bd c353 573c
000003f0: 43ff 04bd 7c32 ef3c ede6 8dbc 955f 933d
-0.005649944 -0.037496626 0.0015082785 -0.053776063 0.034199875 0.013962885 -0.035973616 0.031125238
0.053488947 -0.029645799 -0.008481768 0.0494173 -0.02128694 0.05554065 -0.004651357 -0.013421734
0.0010900921 0.039740894 -0.0013904055 0.017586578 -0.08525255 -0.06892413 0.017717125 0.0417592
0.017193152 -0.0070047136 0.045473423 -0.04508696 0.04067349 0.07764744 0.02332128 0.11998293
0.13650903 -0.016337207 0.08701354 0.04055384 -0.01662157 0.106769346 0.2117708 -0.011396764
0.021197125 0.15780243 0.051238637 0.09934652 0.008687741 -0.08901476 -0.036860693 -0.013684763
-0.15833305 -0.009743204 0.01143032 -0.006228209 -0.04066209 0.11821909 0.0479562 -0.013836589
0.0017020112 0.054008514 0.12587593 -0.045639332 0.011091475 -0.014773443 -0.018300932 0.06514579
0.03202722 0.025336972 -0.05119085 0.03472773 -0.009436752 0.07498346 -0.046470504 -0.058044802
0.012945196 0.036588896 -0.14662358 0.014264971 -0.05320574 0.001044557 0.055261258 0.0009805463
0.06466088 0.15339378 0.10483374 0.074306615 0.094025455 0.07981221 0.05352124 0.10309619
0.1129405 0.01510305 0.049263798 0.03213601 0.021247167 0.099418744 0.068785235 -0.012823809
0.072962016 0.12556878 0.045677215 0.0061284387 -0.034621924 0.019779535 -0.033915333 -0.04868025
0.032914378 -0.04800936 0.0030469077 0.091904245 0.02692618 -0.009511212 0.017794108 0.0049707624
0.02652827 -0.028119005 0.02166096 -0.007830643 0.043484837 -0.022018 -0.015051174 0.08006734
-0.076398544 0.0152931465 -0.03914375 0.011664803 0.03382547 -0.009440832 0.0040443186 -0.032782115
0.07363952 -0.03801672 0.033534877 0.11143713 0.006842174 0.06737512 0.05496336 0.1310438
0.15411453 0.048859037 -0.017211165 0.08522478 0.091292776 0.16271912 0.092097245 0.06817042
0.048681222 -0.022578686 -0.0099185705 0.028100584 0.09941822 -0.02465255 0.0034386767 0.025278851
0.025946245 0.028396642 0.017083975 0.065364644 0.056514103 -0.03742059 0.021927383 0.066559285
-0.027470902 0.009014999 0.07991139 -0.0012076845 0.076788664 0.04701795 -0.036633134 0.03554081
0.06599848 -0.009282248 0.01933147 -0.030738352 0.044121727 -0.031575304 0.035022914 -0.026800591
0.04257928 -0.017055152 0.062210113 0.04586268 0.0356049 0.095050104 -0.016797863 -0.08235295
-0.0016724834 -0.05439749 -0.031787522 0.045099318 -0.048412077 -0.011807785 -0.010885578 -0.21006851
-0.076224774 0.030497031 0.12901956 -0.054191303 -0.061993454 -0.03211718 0.003195158 0.037673026
0.041995488 -0.0062668305 0.08131872 0.04735803 -0.06464075 0.04847656 -0.041534644 -0.073894866
-0.0035203283 0.04102291 0.026122425 0.07356204 0.05747587 -0.05669986 0.052624475 -0.06737665
-0.066155955 -0.11788846 0.04768567 -0.018265316 0.07000075 0.025534112 -0.029420229 0.012284574
-0.05687604 0.05009367 0.04064194 0.047419123 0.0069173924 -0.057164427 0.026380451 -0.03744527
-0.028103214 0.040648445 0.03859141 0.024132125 0.0969226 0.03909752 0.042682197 -0.00059290894
-0.035688173 -0.031049494 0.039674155 0.07342876 0.037741147 -0.00804043 0.034110554 0.028447824
-0.013954867 0.005965328 -0.06586603 0.013142529 -0.03247 0.029198878 -0.017322028 0.07195965

bias f4 [120]
00000000: e8b3 45bc 43ab 843c 5055 ac3c 0910 6b3d
00000010: efc3 fd3c b1b2 dd3a 190b 103d c96d 1d3d
00000020: 6228 4f3c 479e 313c 2eec 9e3c caaa 9fbd
00000030: 1133 c13c 488e 27bd ef1a 5bbd 37f0 6cbc
00000040: 02fd fbbc 8fb9 54bc 67e9 4ebc 979b 483d
00000050: dac2 283d edc2 a03d 633a ca3d 3091 923d
00000060: 1361 ac3d 73be 20bd a00b 0c3d 1148 8ebc
00000070: 16b7 babd c0c4 3d3c a172 8a3c ec51 183d
00000080: 548b 933b bad2 2f3d fe47 c7bc e03e 973d
00000090: 2b9c fc3d b027 dabc bee2 043d c37f 2f3d
000000a0: ff47 4c3c f779 d23d 4fd2 44bd a436 02bd
000000b0: 6c74 13bd 6dd7 2a3d 07f0 733d 4ed3 3cbd
000000c0: 44fa afbd 0c21 66bd 4f5d 3ebd 11d6 383d
000000d0: c47a 70bd d81f 273c d831 b4bd d9b0 d3bc
000000e0: 3666 323d 7f60 74bc 947c 513e a2bb 75bd
000000f0: fe28 22bd 4f50 ed3d 0b1a b9bd cb16 883d
00000100: a90d d93d 2266 513c d399 be3c 5bfe 8c3c
00000110: ab2f 273d 6c0e 423d 5a44 053d a2c0 253d
00000120: 0512 1a3d 6965 5d3c 8cc8 d73c 6bea a63c
00000130: 0168 d23c d46f 103d fa54 833d 9685 bc3c
00000140: 7d8e 073d 7f5d 713d 0aec 983d 66b4 903c
00000150: c171 cb3c 9fed 73bc d4ca 223d 415e 0bbd
00000160: 4a69 5bbd e1f7 23bc 5bdb 4cbd 9fea 613d
00000170: 08b2 053b 2976 fe3d d403 5ebd 136a 0a3d
00000180: ea9b 95bc 5a95 c4b8 4068 3ebb da5e debb
00000190: 8378 afbb d4b0 c4bc 3693 aabc e6ee c43c
000001a0: b801 9b3d eb2b 0a3d 97eb 4b3d 78e4 5dbc
000001b0: 903d 693c ddac 843d d059 273d eace b4bc
000001c0: f476 143c 6230 e439 5f57 9c3d f743 7d3c
000001d0: 7f83 123b 7f1b c13d f335 893b 3bd5 90bd
-0.012066819 0.016194945 0.021036774 0.05738834 0.030977217 0.0016914216 0.035166834 0.038434777
0.012643905 0.010840959 0.019399729 -0.07796247 0.02358392 -0.040907174 -0.053492483 -0.014461569
-0.030760292 -0.012983694 -0.01262889 0.048976507 0.04120145 0.07849679 0.09874418 0.071565986
0.08416953 -0.039244127 0.034190774 -0.017368348 -0.09116952 0.011582553 0.016900362 0.0371875
0.004502693 0.042925574 -0.02432632 0.07385039 0.12334474 -0.026630253 0.0324428 0.042846452
0.012468337 0.10277169 -0.04805213 -0.03179039 -0.0359997 0.041709352 0.05955508 -0.046099953
-0.08592656 -0.05618386 -0.046475705 0.045126025 -0.05871083 0.010200463 -0.087985694 -0.025841163
0.043554507 -0.014915585 0.20457679 -0.059993394 -0.039589874 0.11587583 -0.090381704 0.066449724
0.105983086 0.012780698 0.023266708 0.01721113 0.040816944 0.047377035 0.03253589 0.040466912
0.03761484 0.013512948 0.026340745 0.020375451 0.025684359 0.035262898 0.06412692 0.023012917
0.03309487 0.058927055 0.07466896 0.017664146 0.024834516 -0.014888196 0.039744213 -0.034025434
-0.05356721 -0.010007829 -0.05001388 0.055155393 0.0020400304 0.12424881 -0.05420287 0.033792567
-0.018262822 -9.373827e-05 -0.0029053837 -0.0067862095 -0.0053549423 -0.0240101 -0.020822149 0.024039697
0.07568687 0.03373329 0.049785223 -0.013543241 0.014235869 0.064782836 0.040857136 -0.02207132
0.009061564 0.00043523597 0.07633852 0.015458099 0.002235621 0.094290726 0.0041873395 -0.070719205

weight f4 [84, 120]
00000000: b759 893d 73d9 11bd 45cb 813c e8c5 c53d
00000010: 180a 41bd a836 71bd 334b ee3b da24 ff3c
00000020: 1658 ab3c 110a db3d ea73 abbd f016 a9bc
00000030: 1fb4 b1bd 35e0 1b3e 21ea 9c3c 3667 0fbc
00000040: 1148 803c aada 6a3d 5215 d8bd c63a c3bd
00000050: 9e5a 6d3c 392e 0abd 0ae0 273a 85bf 80bd
00000060: dc68 0f3d 8729 1bbd 2625 98bd 9949 463d
00000070: 6b14 8bba 5462 dd3d 0b31 bdbc d0b3 f13c
00000080: fd0a a33d 7904 0bbd 608c c13a 0840 983d
00000090: 36ad 8f3b b250 c93d 1364 27bd 7b2f b03d
000000a0: 6fab 6e3d 696c b63c 876c 7dbd e651 823c
000000b0: 848f b73d a09b b23c c813 343d cc97 e13c
000000c0: 1ae1 da3c 2ad4 99bd 1b68 0f3d 5600 d93d
000000d0: 7c0b 643c 7ff8 6bbc 7147 003e 375a a43c
000000e0: 8f52 9abd 6294 083d 73e0 803c a802 7fbb
000000f0: acbb 2f3c ca49 ef3d 4388 2c3c 88b1 83bd
00000100: 5255 79bd ac41 49bd b64e 56bd 51b6 6f3d
00000110: f880 a7bd 7874 7bbd 5108 98bc 840f 9bbd
00000120: 1b06 013d 2add cdbd a3ff aabd b77c 8cbd
00000130: 26a0 97bd 38b4 113c dd94 ed3d 0273 6ebd
00000140: af4e 91bd 7347 f93d 0031 dabd bf64 9a3b
00000150: 4b41 4e3d 79ff 183e 148e 7ebd b296 793d
00000160: 229e 53bd b812 cbbd 9965 be3c 70d2 0c3d
00000170: 5089 b9bc 710a 953b e766 ffbd 9fd5 543b
00000180: 5e48 943d 3a8c c0bd dbc1 5ebd 648d cd3d
00000190: 12d7 dc3b 3acb 05be 4882 83bc e598 133c
000001a0: 0ca8 883d b7b1 1b3d 82b7 9abd e43c 403d
000001b0: 0454 533d 24d3 ac3d 1dbd 2c3b ce8e 93bd
000001c0: bfbc aa3c 6aa3 d33c e41d ef3d 4f9b d13c
000001d0: c393 ae3d 0673 63bd eb6d 6ebd 27f7 8ebd
000001e0: 980c 5e3d db84 113d 76d2 5abd a876 7d3d
000001f0: 82e3 093d 4be6 15bc 1db4 cc3d 2f71 4c3d
00000200: 9b15 e0bd b0d3 d1bd faee eb3b e6bd 973d
00000210: 605f 65bd e68b b6bc b2b8 a8bd 443a 013e
00000220: a766 2a3c 0471 453e 7d60 56bd a622 663d
00000230: 86ee f9bb 4f0b 97bd f26b 06ba 5f29 8abd
00000240: d87c a03d 00e0 a8bd a2ab 913d 4f8d 953d
00000250: e6c7 693d 6619 01be 9b5b 0c3c 6aee e73d
00000260: 93d3 12bd 98f3 32be 0171 2f3d f1d8 203d
00000270: 3108 bd3d 8a69 08bd 6ac1 55bb ebb8 273d
00000280: 4a8f a83d accd 6dbd b538 693d 7cc1 693b
00000290: b4c3 0dbd 9cff 123e f9c7 543d 5ba2 103e
000002a0: 7be6 d0bc d60d 143d b023 723d f4d5 6d3d
000002b0: 7817 aa3d a452 6f3d d8fd 5a3d 6b9b c53d
000002c0: 59da dc3c 8942 adbd 5670 19be aa92 9cbc
000002d0: 8b60 ef3c 88d0 90bd 9b17 1f3e c4be 003e
000002e0: 18db 3f3e 551b e6bd a3e5 cd3c a07c cfbc
000002f0: a9bf b43d 5365 17bd c742 153d 98e7 23bd
00000300: dd82 20bc 998f a2bd 6e36 663d 3e88 bbbd
00000310: 0689 2dbd d510 14bd 0faf 013e a4bd 8d3c
00000320: 4ceb 47bd 6839 56bd a6e4 27bd b093 10be
00000330: c729 b73c 6e24 a0bd b203 e53d 3513 6bbd
00000340: 2a83 61bd 6ef0 35be cd4c ae3c 469c 6b3d
00000350: 6ddf 9cbd 7d97 96bd 40de 7e3c 8523 86bd
00000360: 8147 aebd 6f01 e7bc 255b a63d 68ef c43d
00000370: 2bf3 1bbe 5f11 15be 20d7 003e 45c4 c1bc
00000380: 7d3e c03d e03e 233d 653f 143e 061d 98bd
00000390: fbf1 c6bd 4c79 0ebd f8f4 ceba cf41 4dbd
000003a0: e010 87bb 1f37 e83b c3ec 53bc 80a5 c1bc
000003b0: 850c 95bd 6289 fe3d 21a1 a1bd 3cb6 c2bd
000003c0: bf8c f7ba 4aca 443d 0360 bcbc 9ec5 823d
000003d0: 716a 983d d334 113d 112f 7b3d c0c6 86bd
000003e0: defe 703d c0e0 793c b8e8 a0bd e42b 4c3d
000003f0: e444 453d 0788 25bd 5426 5fbd 0c60 923d
0.06706565 -0.035607766 0.015843997 0.09656888 -0.047128767 -0.058890015 0.007272148 0.031145502
0.020916026 0.106952794 -0.08371718 -0.02064082 -0.086769335 0.15222247 0.01915461 -0.008752635
0.015659364 0.05733744 -0.105509415 -0.095326945 0.014486937 -0.033735488 0.0006403929 -0.062865295
0.03501211 -0.0378814 -0.074289605 0.048410032 -0.0010610943 0.1080977 -0.023094675 0.029504687
0.0796108 -0.033939812 0.0014766566 0.07434088 0.004384662 0.098298445 -0.040866923 0.08602806
0.05826896 0.02226849 -0.061871078 0.015908193 0.0896292 0.021802723 0.043964177 0.027538203
0.026718665 -0.0751117 0.035011392 0.10595767 0.013918754 -0.014402508 0.12527253 0.020062549
-0.07535278 0.033344634 0.015732026 -0.0038911495 0.010725897 0.11683996 0.010530534 -0.06430346
-0.060872383 -0.049134895 -0.05232116 0.05852348 -0.08178896 -0.06139037 -0.018558653 -0.07571319
0.031499963 -0.10051949 -0.0834954 -0.06859725 -0.07403593 0.008893065 0.11600659 -0.05821515
-0.07095086 0.12171831 -0.10653877 0.004711717 0.050355237 0.14941205 -0.062147215 0.06093473
-0.05166448 -0.0991568 0.023241805 0.034380376 -0.022648484 0.004548364 -0.12470799 0.003247596
0.072403654 -0.09401746 -0.054384094 0.10036734 0.0067395056 -0.13065806 -0.016053334 0.009008621
0.066726774 0.03801128 -0.075545326 0.04693307 0.051593795 0.084387094 0.0026357837 -0.07204972
0.020841954 0.025834758 0.11675623 0.025586752 0.08524277 -0.055529617 -0.058210295 -0.06980734
0.05421123 0.03552709 -0.053423367 0.061880738 0.033664234 -0.009149144 0.099952914 0.049912628
-0.10941621 -0.10245454 0.007200119 0.07409267 -0.05599916 -0.022283506 -0.08238353 0.12619883
0.010400451 0.19281393 -0.052338112 0.056185387 -0.007627311 -0.07375204 -0.00051277794 -0.06746172
0.07836312 -0.082458496 0.071128145 0.07302343 0.057075404 -0.12607345 0.008566762 0.11324771
-0.035846304 -0.17475736 0.04283238 0.03926939 0.09230078 -0.033303775 -0.0032616504 0.040947836
0.08230455 -0.058057472 0.056938846 0.0035668304 -0.034610465 0.1435532 0.05194852 0.14124434
-0.025500527 0.036146007 0.059116066 0.05806537 0.083052576 0.05842842 0.05346474 0.09648784
0.026959585 -0.08459956 -0.14984259 -0.019112904 0.02922084 -0.07071024 0.15536349 0.12572771
0.18735921 -0.11235682 0.025133913 -0.02532798 0.08825619 -0.036961865 0.036440637 -0.040015787
-0.009796825 -0.07937545 0.056204252 -0.091568455 -0.042367004 -0.036148865 0.12664436 0.017302342
-0.04880838 -0.05230084 -0.04098954 -0.14118838 0.022358788 -0.078194484 0.111823454 -0.057391364
-0.05505673 -0.17767498 0.021276856 0.05752208 -0.076598026 -0.07353113 0.015555918 -0.065497436
-0.08509732 -0.028198926 0.08122853 0.096159756 -0.1522948 -0.14557408 0.12582064 -0.023653159
0.09386919 0.039854884 0.14477308 -0.07427411 -0.09714123 -0.034783646 -0.0015789559 -0.050111588
-0.0041218847 0.007086649 -0.012934866 -0.023638487 -0.072777785 0.124285474 -0.07892061 -0.09507415
-0.001888655 0.04804448 -0.022995 0.06385349 0.07442177 0.035450768 0.061324183 -0.06580877
0.05883681 0.0152513385 -0.078568876 0.049846545 0.048161402 -0.04041293 -0.054479912 0.07147226

bias f4 [84]
00000000: 613c 803d 4045 2dbd 2cb3 b93c e38e 793d
00000010: 8a9d 40bc 812f a6bc f85e 64bd 8f55 363d
00000020: 272d 863d c68d 2b3d bd82 bcbd 7f0e 163d
00000030: 5a75 033e 7faa e33c 6586 8e3a bf08 3abd
00000040: d9e1 86bc 8a25 243d 68f8 873c 9971 47bd
00000050: 18e6 033d 02bf b4bc da0d 8d3d 757d 38bd
00000060: b785 dfba 5f39 0b3e 6b89 013e ac34 91bd
00000070: 5e27 84bd be54 c7bd 2810 c13c f32e 6b3c
00000080: 3fe3 77bd d67f e6bc 93c8 073c 38ae 093e
00000090: b72c da3d 9fc9 3fbd 75fb 463d 7a23 d9bb
000000a0: 8abb adbd b63d 81bd 791c a4bd c2ab 7f3d
000000b0: 7453 9fbd 98e7 bf3d a188 bfbc f8fe 07be
000000c0: de0f 093d de3e 483d 93a1 bd3d 1bf2 ea3d
000000d0: 2ffb f53d 2795 b8bd 9b19 7a3d 3c47 acbc
000000e0: a6d4 3e3d 60af 7bbd 4d22 b53b defc 813d
000000f0: 3398 823d cd02 54bc 4204 bdbc 14eb 8bbd
00000100: 44b3 b03d fdb0 c7bd 2ba7 ae3d 4888 823d
00000110: 1030 4abd 21e1 8b3d 661a 5ebd 2fe7 83bc
00000120: 9f61 a1bc 20c0 4b3d cba8 63bd 00fa 8fbd
00000130: 8d70 d93d 4b81 863d 9e08 6a3d 170a 6e3a
00000140: a50b 543d 1e29 c53d fc21 d03d ca39 153d
0.06261516 -0.04230237 0.022668444 0.060927283 -0.01175631 -0.020286324 -0.05575463 0.04451519
0.06551581 0.041883253 -0.09204624 0.03663492 0.12837735 0.02779126 0.0010873793 -0.045418497
-0.016465114 0.040074863 0.016597942 -0.04869232 0.032201856 -0.022063736 0.068874076 -0.04504152
-0.00170534 0.13596104 0.12650077 -0.070901245 -0.06452821 -0.0973296 0.023567274 0.014354455
-0.060519453 -0.028137129 0.008287567 0.13445365 0.1065306 -0.04682314 0.04857965 -0.0066265436
-0.08483036 -0.063105986 -0.08013243 0.06241966 -0.07779589 0.09370345 -0.02338058 -0.13280857
0.033462398 0.04888808 0.092593335 0.11471959 0.120108 -0.090128236 0.061059576 -0.021030061
0.046589516 -0.061446548 0.0055277706 0.06347059 0.06376686 -0.012940121 -0.02307332 -0.06831947
0.08627942 -0.09750555 0.085279785 0.0637365 -0.049362242 0.06830049 -0.054224394 -0.016101448
-0.01969987 0.04974377 -0.055580895 -0.070301056 0.106171705 0.065676294 0.057137124 0.0009080483
0.051768918 0.09626983 0.10162732 0.036432065

weight f4 [43, 84]
00000000: a03c f2bd 39b5 123e 7c86 60bd c5e0 953c
00000010: df87 1a3d a7f1 eb3d 7e58 64bd 6257 c2bd
00000020: 20c1 8d3d cbc3 1c3d 9c31 a93d 38fd 573d
00000030: a2f3 52bd 20a7 c03d 2062 a63c 9f1e a7bd
00000040: dccd 37bd ca16 e5bc 02d5 da3d c6a5 64bd
00000050: f54b f53c a3b2 92bd 6b09 963d 8d4f 83bc
00000060: 4b3d 613d b1eb 32bc 3f47 81bd c6cf 993d
00000070: 50da 8d3c 9dc5 7bbd bc90 00bd 403c 4ebe
00000080: b3d5 50be bcb8 98bd a62d 41bd 64b4 71bd
00000090: d272 42bc a346 d5bd f57c 8bbb cb7d 4b3d
000000a0: edff 683d 220a 803d 1d0b a0bc c505 81bd
000000b0: fa51 153d d5b6 b3bc 0313 993d dccd 0d3e
000000c0: 5410 bd3c 0d62 25be 9496 cf3c 2137 b5be
000000d0: e175 3abc 32a8 12bd f008 773d d0c1 5fbc
000000e0: f26a dcbd e0ca 98bd f9a3 9abd 3d7a fe3d
000000f0: d057 87bd f831 843d 6a21 193e 4776 a0bd
00000100: 95ed dcbd 7f60 15bc 27f0 71be f842 a4be
00000110: 22c8 a33c 69e2 a73d 36c0 393d 5f4a a83d
00000120: 1e39 cabd 62c0 53bd 54a3 913d 5841 7c3d
00000130: dc19 113e 9429 2ebd 9f79 883d 4b3a 89bd
00000140: 871f 163c f9fc c53d 7964 0f3d 0516 b43d
00000150: 3170 903d a0a3 e73d c243 06bd 7561 52bd
00000160: e7d0 8c3d ebe2 f23d 1fc9 1dbe 24f6 8dbd
00000170: f830 e1bd 0eb2 0abe 3205 3e3d acf0 6bbd
00000180: 11eb 43bc 0ed0 b9bd 2edb 253d 523b 4abe
00000190: cf8d 4a3d dd2d d5bd 8fb3 10bc f706 78bc
000001a0: 945b 553d 4e48 f2bc 0093 a5bd d173 86bd
000001b0: 0054 413c 946b 0e3e 38b2 98bd 64e4 bdbd
000001c0: 4afd ed3c 71c1 9dbd cbf5 8dbd 8978 ab3c
000001d0: 6e61 02be 767d 3cbd 09db 8d3d dd35 c03d
000001e0: a9de e83c 47e8 5fbd 00cd a03d ba94 2b3d
000001f0: 3b05 973d 3f68 f23c c650 213d 9a3e 703d
00000200: 0099 103b c484 1ebc 6f61 053e c99c ec3d
00000210: 7085 ffbb 9682 a9bb eace b43d 9eac 12be
00000220: b2d2 84bd 5726 95bd b4d3 f33c 1334 d33d
00000230: 4dd9 e3bd b96c fe3d e821 273d 3c11 c53b
00000240: 7af8 283c 1f3a d3bd 8e45 543d 894a b7bd
00000250: d80b 73bd 9d11 133c 36a4 c8bd f022 25bd
00000260: 30f3 8e3d 936c c7bc 3f64 42bc f495 bcbd
00000270: 20c9 ffbc d25f b4bc e1dc 12bc a165 7d3d
00000280: 8cfd 763d 687f e9bd c701 ae3d 0adf 093e
00000290: 7229 d3bd 561a be3d 701d a8bd 12b1 a6bd
000002a0: fff9 913d 13f9 1abc 0d00 c33c 87be b33c
000002b0: 423f 9abc 9de1 123e 5bd1 87bd 1e41 c73d
000002c0: db3e c33c 47e3 e83a 70cf 7b3c 07e5 7d3d
000002d0: 763e 073d 00d6 72bd 2356 adba 157d 893c
000002e0: 7ba2 103e 7c1e 6bbd 3576 973c 71e0 52bd
000002f0: 58c5 153d 7661 2bbd 97d6 613d f9b1 043e
00000300: e091 2ebd f253 90bc 5d69 c7bd 45d0 cf3d
00000310: 797c 6bbc b621 03bd 661e cb3d c409 5ebc
00000320: f924 1e3e 8a19 08be 1ca0 fc3d d37f 6f3b
00000330: 08c5 a43c 1c0b 69bd 9a19 86bd 3bb7 89bd
00000340: 4ed7 efbd 4bf9 47bc eb48 c7bd a6f3 4b3d
00000350: 94b0 8a3c 7f2a f5bd 2107 a73d c7d7 d33d
00000360: 766c 213d 4740 5abd 7ff5 96bd 74e2 9bbd
00000370: a691 10bd d1f2 143c a6a2 31bd 086a 543c
00000380: e0fd 85bd 956c c93d 0e5d 783d 357a 013e
00000390: 4fd1 24bc d13c fabd dd85 7c3d 8a21 93bc
000003a0: 23f4 663c 33a2 633d 771b dabc 58a6 49bd
000003b0: 4ca9 aabd 72e3 033d 2429 a63d 4d78 223d
000003c0: 90f3 1dbd b44e 703d e1b9 523c 2d49 903d
000003d0: 5037 6cbd 6c25 e23d c776 ba3d a18c 77bd
000003e0: eed5 e7bc 969e 133d 7fe5 433d 90a5 993d
000003f0: 6181 bb3d 867e 103d e312 c43c 5024 1fbd
-0.118279696 0.14326943 -0.054815754 0.018295655 0.037727233 0.11520701 -0.055748455 -0.09489323
0.06921601 0.03827266 0.08261415 0.052731723 -0.051501878 0.094068766 0.020310462 -0.081601374
-0.044874057 -0.027964968 0.10685159 -0.055822156 0.029943446 -0.071629785 0.07326015 -0.016029144
0.054990094 -0.010920451 -0.06312417 0.07510333 0.017316014 -0.061467756 -0.03138803 -0.20140171
-0.2039402 -0.0745711 -0.047162674 -0.059009925 -0.011868196 -0.104138635 -0.0042568394 0.049680512
0.056884695 0.06251933 -0.01953655 -0.062999286 0.036455132 -0.021937767 0.07474329 0.1384806
0.023079075 -0.16150685 0.025340356 -0.35393623 -0.011380644 -0.035804935 0.060311258 -0.013657048
-0.10762586 -0.0746057 -0.075508066 0.12425659 -0.06608546 0.06454843 0.14954153 -0.078350596
-0.10787503 -0.009117245 -0.23626767 -0.32082343 0.019992892 0.08197481 0.045349322 0.0821731
-0.098741755 -0.051697142 0.071112305 0.061585754 0.14170021 -0.04252012 0.066638224 -0.067005716
0.00916279 0.09667391 0.035007928 0.087932624 0.07052649 0.11310506 -0.032779463 -0.051362474
0.068757825 0.118596874 -0.15408753 -0.06931713 -0.10995668 -0.13544485 0.046391673 -0.05760257
-0.0119579 -0.090728864 0.04049223 -0.19749191 0.049451645 -0.10409138 -0.008831873 -0.015138379
0.05208929 -0.029575493 -0.08084679 -0.06565059 0.011799812 0.13908225 -0.074558675 -0.09272078
0.029051442 -0.07702912 -0.06931647 0.0209315 -0.12732479 -0.046018086 0.06926543 0.093852736
0.028426485 -0.054664876 0.07851601 0.041889884 0.073740445 0.029590724 0.039383672 0.05865345
0.0022063851 -0.0096752085 0.13025449 0.11553342 -0.0077978894 -0.0051730378 0.08828528 -0.1432366
-0.064854994 -0.07282703 0.029764034 0.10312667 -0.11125431 0.12423081 0.04080382 0.0060140174
0.010313148 -0.1031382 0.051824145 -0.08949763 -0.059337467 0.008976367 -0.09796946 -0.040316522
0.06979978 -0.024343764 -0.011864721 -0.09208289 -0.031223834 -0.022018347 -0.008963794 0.0618645
0.060300395 -0.11401254 0.08496433 0.13463989 -0.103106394 0.09282367 -0.0820874 -0.08139242
0.07127761 -0.009458798 0.023803735 0.021941436 -0.018828992 0.14343877 -0.06631728 0.09729217
0.023833683 0.0017767929 0.015369281 0.061985996 0.03301855 -0.059286118 -0.0013224523 0.016783277
0.14124481 -0.05740212 0.018488983 -0.051483575 0.036565155 -0.041840993 0.05513629 0.12958516
-0.042619586 -0.017618153 -0.09736893 0.10147146 -0.014372938 -0.03201457 0.099179074 -0.013552133
0.15443791 -0.13290992 0.12335226 0.0036544695 0.020113483 -0.05689536 -0.06547852 -0.067244016
-0.11710988 -0.012205432 -0.09730705 0.049792908 0.016929902 -0.11970996 0.081556566 0.10343891
0.039410077 -0.053283956 -0.073710434 -0.07611552 -0.03529515 0.009091095 -0.043368004 0.012964733
-0.065425634 0.098351635 0.06063562 0.12644275 -0.010059669 -0.12218631 0.0616511 -0.017960329
0.014096293 0.055574607 -0.026624424 -0.049230903 -0.08333072 0.03219933 0.08113316 0.03966551
-0.038562357 0.058668807 0.0128617 0.07045207 -0.057669938 0.11042294 0.09104686 -0.06043685
-0.028300252 0.03603991 0.047826286 0.07502282 0.091555364 0.035276912 0.023934787 -0.03885299

bias f4 [43]
00000000: cac5 1ebe b259 04be 720c 5d3d 33a0 abbc
00000010: 71f0 ff3c 63ce 98bc 7520 5d3d de61 143e
00000020: 028d b5bd 11cc 9bbb 4bc4 813d d949 63bd
00000030: 5a49 efbd 11c5 533d 7b0d e13d 998f c8bd
00000040: fafb 28b9 87c5 0cbc 27c0 a43d b2ae a7bd
00000050: 9bae dd3d e8d3 3a3c 3f5d 67bd 5912 69bd
00000060: b941 03bd cfce 60bd a62c 223e 5327 cb3c
00000070: e6d2 563d 6993 e9bd ae9d c9bd 66d4 053e
00000080: 0200 eabc 3d86 883c d117 9ebd e26b a6bd
00000090: 4750 9d3d 0531 ddbd 2854 cb3d 1a76 99bc
000000a0: 2dff 363d 7d31 033d d3aa c13a
-0.15505138 -0.12924841 0.053966947 -0.020950412 0.031242581 -0.0186531 0.05398603 0.14490458
-0.08864786 -0.004754551 0.06336268 -0.05549035 -0.116839126 0.05170161 0.10988899 -0.09793014
-0.00016115597 -0.008592016 0.08044463 -0.08187617 0.10824319 0.011403061 -0.05648541 -0.056902263
-0.0320451 -0.054884728 0.15837345 0.024799025 0.052447222 -0.114050694 -0.09844528 0.13069305
-0.028564457 0.016665572 -0.07719386 -0.08126046 0.07681327 -0.10800365 0.09928161 -0.018733073
0.04467695 0.032029618 0.0014775641
